notebooks/checkpoints/robust_model_v5.pth (torch, 389766 bytes, 20 tensors)

conv1.0.weight f4 [32, 3, 3, 3]
0.037367884 0.059706345 -0.00747322 -0.10042228 0.08581582 -0.05024018 -0.096415326 -0.12657204
-0.08596744 0.055589207 -0.12622781 -0.06490588 -0.13565938 0.08674513 -0.03782443 -0.08998649
0.08651096 -0.08202335 -0.14916168 -0.15646756 -0.16522554 -0.06379584 -0.10539423 -0.11288223
0.15272968 0.0030010531 0.13956225 -0.15668836 -0.12967642 0.109816864 0.011426141 -0.07630181
-0.041335437 -0.1074466 0.18689002 0.08431631 -0.17490469 -0.1836017 0.03251333 0.1023361
0.17761144 -0.04826893 0.001188289 0.011944764 -0.06098008 0.10877606 -0.14779337 -0.10100366
-0.1851834 0.15079296 -0.18308806 0.029422272 -0.08473443 0.040065527 -0.007816164 -0.06306348
0.10402944 0.15788561 -0.13081509 0.19223048 0.10737176 0.11791058 -0.18064062 -0.008180428
0.08308337 0.015918408 0.11966888 0.0936652 0.09209101 -0.062383525 0.04819953 -0.028203992
-0.11986297 -0.17133708 0.0028323343 -0.06527304 -0.08521738 -0.071691275 -0.09308469 -0.15324903
0.026486687 0.065636665 -0.13191304 -0.10525963 -0.11816096 0.05185975 0.14502244 0.15643078
0.0025445013 -0.0016527018 -0.11445304 -0.032060515 0.019209638 -0.089329526 0.05473811 -0.09551576
0.052331004 0.106466055 0.19369783 0.10520412 -0.026788915 -0.15980838 -0.06803545 0.2015656
0.073576294 -0.12990358 0.09110458 0.022721209 -0.16887933 -0.12079448 0.035404466 0.1995353
-0.14404373 -0.033304058 0.17649965 0.0514299 -0.15156807 0.1778334 0.13445328 -0.22883777
0.095158994 -0.092982635 -0.096439086 0.17535208 -0.14238468 -0.13796224 0.10128929 0.012699486
0.062196944 -0.051306747 0.04480913 -0.105674796 -0.19084494 -0.019673636 0.029082626 -0.033406205
0.038808737 0.0782207 0.038510114 -0.07032392 -0.038660128 0.15458985 0.085868575 -0.012268984
0.05941749 -0.17398086 -0.073882215 0.066652834 -0.101916134 0.16591658 0.18069679 -0.120977476
-0.047531888 0.03526977 -0.12672272 -0.18140325 -0.09052866 -0.17005171 -0.11923758 -0.013236466
-0.18828382 -0.11846549 0.13097154 0.005582052 0.02535944 0.081350826 0.056603767 0.1456773
-0.051385984 -0.16333994 -0.1707241 -0.08431559 -0.12708622 0.103645176 -0.123012744 0.1394575
0.15773346 0.09307966 0.0010709369 -0.18433522 -0.13962153 -0.17863724 -0.03792871 0.030409705
-0.03981224 -0.08990676 0.12894484 0.16501024 0.020594144 0.01248277 -0.14142253 -0.2188164
0.1391587 0.10534204 -0.14445727 0.12892067 0.07726943 0.0010295026 0.060702745 -0.012955511
-0.11493619 -0.013687563 0.02228377 -0.1663074 0.17767464 -0.06332651 0.0773317 0.08889977
-0.1926964 0.15457834 -0.10550683 -0.078617 -0.106229074 0.16634175 0.040849347 -0.06766134
0.22624356 -0.120369926 -0.13475814 0.015867824 -0.059893508 -0.015845938 -0.005988681 0.025862252
-0.030277897 0.11775203 0.055425685 0.021048792 0.011096813 -0.023726199 -0.1813342 0.06328384
-0.0094263 -0.07842672 0.12932509 -0.01284775 -0.14148739 0.14651945 -0.0328871 0.0799889
-0.07668539 -0.12830229 -0.017245585 0.06730754 -0.019784866 0.050069828 -0.17651248 -0.19025409
0.13760236 0.1640815 0.051097408 -0.17005886 -0.11616106 0.046672445 0.060472485 0.0009928329
00000000: 110f 193d a48e 743d eae1 f4bb 32aa cdbd
00000010: 34c0 af3d a6c8 4dbd 6675 c5bd 1a9c 01be
00000020: b20f b0bd 82b1 633d dd41 01be 60ed 84bd
00000030: 4bea 0abe 6ea7 b13d caed 1abd d64a b8bd
00000040: a82c b13d dcfb a7bd d7bd 18be 0839 20be
00000050: e230 29be 65a7 82bd eed8 d7bd cc2e e7bd
00000060: 2b65 1c3e 51ad 443b 68e9 0e3e ea72 20be
00000070: e5c9 04be aae7 e03d b534 3b3c 2044 9cbd
00000080: 594f 29bd f70c dcbd 1960 3f3e 08ae ac3d
00000090: 371a 33be 1602 3cbe b32c 053d 9795 d13d
000000a0: c6df 353e a4b5 45bd 5dc0 9b3a f9b3 433c
000000b0: 40c6 79bd fcc5 de3d 2557 17be 02db cebd
000000c0: b8a0 3dbe 7869 1a3e 707b 3bbe fa06 f13c
000000d0: 3f89 adbd c01b 243d 5e0f 00bc 6d27 81bd
000000e0: 630d d53d c4ac 213e 64f4 05be 11d8 443e
000000f0: bae5 db3d 1a7b f13d dbf9 38be 3407 06bc
00000100: 9d27 aa3d 5267 823c f514 f53d 8ad3 bf3d
00000110: 369a bc3d de85 7fbd df6c 453d 0f0c e7bc
00000120: b87a f5bd fd72 2fbe af9e 393b dfad 85bd
00000130: 7386 aebd e0d2 92bd 30a3 bebd 50ed 1cbe
00000140: 9cfa d83c 846c 863d 3614 07be 5c92 d7bd
00000150: 60fe f1bd e46a 543d c380 143e 642f 203e
00000160: a6c1 263b 789f d8ba 5b66 eabd e351 03bd
00000170: 885d 9d3c 66f2 b6bd 1235 603d c49d c3bd
00000180: 0959 563d e00a da3d b958 463e 4275 d73d
00000190: 6d74 dbbc cfa4 23be 2c56 8bbd 3667 4e3e
000001a0: 2baf 963d 7205 05be 0a95 ba3d d421 ba3c
000001b0: b4ee 2cbe 1963 f7bd 4604 113d fb52 4c3e
000001c0: 3380 13be d669 08bd 53bc 343e 29a8 523d
000001d0: a934 1bbe f519 363e 1fae 093e 7354 6abe
000001e0: b8e2 c23d ae6d bebd db81 c5bd 7f8f 333e
000001f0: 4acd 11be f945 0dbe c270 cf3d 8111 503c
00000200: 39c2 7e3d 0627 52bd c789 373d 076c d8bd
00000210: db6c 43be 9b2a a1bc b03e ee3c f2d4 08bd
00000220: e9f5 1e3d 2d32 a03d c8bc 1d3d fd05 90bd
00000230: 155a 1ebd cd4c 1e3e dddb af3d d903 49bc
00000240: c15f 733d 0a28 32be 8f4f 97bd 4881 883d
00000250: 68b9 d0bd 09e6 293e 9408 393e 0ac3 f7bd
00000260: ccb0 42bd 0977 103d 9ac3 01be c6c1 39be
00000270: 1767 b9bd 0922 2ebe d532 f4bd c3dd 58bc
00000280: 79cd 40be 099e f2bd 671d 063e a5e9 b63b
00000290: 9abe cf3c 439b a63d 5ad9 673d 6e2c 153e
000002a0: 1c7a 52bd 9642 27be 4cd2 2ebe a7ad acbd
000002b0: e422 02be ec43 d43d 1bee fbbd f2cd 0e3e
000002c0: e184 213e 8ca0 be3d ae5e 8c3a 5fc2 3cbe
000002d0: f2f8 0ebe aeec 36be 235b 1bbd c61d f93c
000002e0: 2912 23bd 0921 b8bd 1e0a 043e 72f8 283e
000002f0: 0db5 a83c 8884 4c3c 11d1 10be 6811 60be
00000300: 9e7f 0e3e 91bd d73d 9bec 13be c803 043e
00000310: 6f3f 9e3d 60f0 863a 71a3 783d 5a43 54bc
00000320: aa63 ebbd cd41 60bc 748c b63c 7d4c 2abe
00000330: 57f0 353e 54b1 81bd 1560 9e3d 1511 b63d
00000340: 3552 45be c949 1e3e f713 d8bd f301 a1bd
00000350: a18e d9bd 7e55 2a3e a551 273d 0792 8abd
00000360: 64ac 673e 8284 f6bd 0afe 09be 3dfd 813c
00000370: e552 75bd 57cf 81bc b33c c4bb 13dd d33c
00000380: 5a09 f8bc fa27 f13d 0b06 633d 846e ac3c
00000390: 68cf 353c 725d c2bc acaf 39be f59a 813d
000003a0: c570 1abc 309e a0bd cc6d 043e 5f7f 52bc
000003b0: 12e2 10be 3209 163e a0b4 06bd 38d1 a33d
000003c0: 3b0d 9dbd ad61 03be 9d46 8dbc 89d8 893d
000003d0: df13 a2bc 0516 4d3d b0bf 34be f8d1 42be
000003e0: a2e7 0c3e fb04 283e 844b 513d e923 2ebe
000003f0: dae5 edbd 9b2b 3f3d ffb1 773d f221 823a

conv1.0.bias f4 [32]
0.119386144 0.13046643 -0.012046964 0.09830455 0.12480259 0.08927792 -0.00955354 -0.08821986
-0.0014837765 0.08361503 0.0023487294 -0.11742359 -0.08436475 0.09444765 0.025702495 -0.074489914
-0.20817591 -0.16093878 0.07323218 0.07600978 -0.116334856 0.16289808 -0.10437937 -0.10244348
0.007500808 0.14882512 -0.13080496 -0.0066190325 0.1435951 -0.090642765 -0.06302203 -0.16506308
00000000: b980 f43d fe98 053e a160 45bc e553 c93d
00000010: 8098 ff3d 58d7 b63d 7386 1cbc 9dac b4bd
00000020: 477b c2ba 5b3e ab3d 24ed 193b c77b f0bd
00000030: 6dc7 acbd c56d c13d 0a8e d23c 2b8e 98bd
00000040: 112c 55be 23cd 24be c1fa 953d 04ab 9b3d
00000050: f840 eebd c1ce 263e dac4 d5bd e3cd d1bd
00000060: 57c9 f53b 9d65 183e bcf1 05be 78e4 d8bb
00000070: 980a 133e eaa2 b9bd b211 81bd 4c06 29be

conv1.1.weight f4 [32]
1.0622581 0.99322104 0.9868197 1.0361053 1.0091537 0.96897244 1.0010599 1.0365181
1.0802745 1.0261843 0.98261935 0.96789837 0.9842721 0.99037135 0.99954855 0.9691815
1.0176355 1.0369053 0.99826664 1.0798495 0.9951225 1.084045 1.0275439 0.97320956
0.98487157 0.96548516 0.97373253 0.98254704 1.0026373 1.0034157 0.98051304 0.9859345
00000000: 13f8 873f bc43 7e3f 37a0 7c3f 199f 843f
00000010: f32b 813f 940e 783f bb22 803f a0ac 843f
00000020: 6f46 8a3f 025a 833f f18c 7b3f 30c8 773f
00000030: 42f9 7b3f fa88 7d3f 6ae2 7f3f 471c 783f
00000040: e141 823f 50b9 843f 678e 7f3f 8238 8a3f
00000050: 59c0 7e3f fdc1 8a3f 8f86 833f 4324 793f
00000060: 8b20 7c3f 092a 773f 8946 793f 3488 7b3f
00000070: 6b56 803f ed6f 803f e702 7b3f 3466 7c3f

conv1.1.bias f4 [32]
0.09222086 0.032763116 -0.035717625 0.019181574 0.0043092845 -0.034072783 -0.0675788 0.06777876
0.025411256 0.07474167 -0.05822344 -0.031489525 -0.017425837 0.01582559 -0.01174231 -0.07572047
-0.019491788 0.027926633 0.070441455 0.12244538 -0.010306079 0.15102215 0.0072903535 -0.029679818
-0.0716796 -0.024678705 -0.10617918 -0.021856312 -0.02326679 0.08137214 -0.010170995 0.027214412
00000000: 4ade bc3d 9e32 063d a54c 12bd ad22 9d3c
00000010: e634 8d3b e78f 0bbd c166 8abd 97cf 8a3d
00000020: 442b d03c 2912 993d b47b 6ebd 29fb 00bd
00000030: a1c0 8ebc aba4 813c d162 40bc 5513 9bbd
00000040: 3ead 9fbc 65c6 e43c 9c43 903d a5c4 fa3d
00000050: d4da 28bc 8da5 1a3e ebe3 ee3b 1723 f3bc
00000060: c1cc 92bd ff2a cabc 7874 d9bd 020c b3bc
00000070: ff99 bebc 70a6 a63d 3fa4 26bc c2f0 de3c

conv1.1.running_mean f4 [32]
-0.014929336 0.048383415 -0.02851198 0.13401344 0.0756699 -0.01564818 -0.022933377 -0.1123743
-0.024021689 0.047092736 -0.014958031 -0.14750114 -0.017176703 0.06755635 0.06748126 -0.16310924
-0.26081532 -0.1280234 0.14951003 0.14753193 -0.066526465 0.060536884 -0.07436938 -0.11229295
-0.008985282 0.17192458 -0.21828535 -0.040545844 0.091720365 -0.0055425926 -0.13658628 -0.2494479
00000000: 2c9a 74bc b02d 463d f591 e9bc d23a 093e
00000010: d2f8 9a3d 9d30 80bc c7de bbbc 7f24 e6bd
00000020: 22c9 c4bc 50e4 403d 8712 75bc 8a0a 17be
00000030: 28b6 8cbc fc5a 8a3d 9d33 8a3d 1c06 27be
00000040: 9689 85be 9118 03be 2819 193e 9c12 173e
00000050: 073f 88bd 86f5 773d f94e 98bd d9f9 e5bd
00000060: 0137 13bc ff0c 303e 3286 5fbe 6613 26bd
00000070: e3d7 bb3d a39e b5bb 46dd 0bbe 456f 7fbe

conv1.1.running_var f4 [32]
0.02267722 0.012106616 0.023167254 0.0069116703 0.012711652 0.038148485 0.0071168724 0.010851212
0.008636126 0.0045451582 0.005438987 0.03031306 0.0092238095 0.0047545144 0.011364062 0.023416458
0.0112507455 0.004164089 0.011005774 0.012981893 0.015450736 0.013504893 0.013114092 0.02574349
0.012471584 0.008133077 0.024427412 0.0068629053 0.009583415 0.016144112 0.022792274 0.016808536
00000000: 94c5 b93c d45a 463c 41c9 bd3c 4b7b e23b
00000010: 8844 503c 9641 1c3d a734 e93b 48c9 313c
00000020: 8a7e 0d3c 8def 943b 8839 b23b 1853 f83c
00000030: 761f 173c c2cb 9b3b 5530 3a3c dfd3 bf3c
00000040: 0c55 383c e972 883b 9051 343c 01b2 543c
00000050: 1525 7d3c a043 5d3c 7ddc 563c 03e4 d23c
00000060: 9d55 4c3c 9940 053c ff1b c83c 39e2 e03b
00000070: c203 1d3c a840 843c ddb6 ba3c 0eb2 893c

conv2.0.weight f4 [64, 32, 3, 3]
-0.06569 -0.03210518 -0.08606668 -0.027212294 -0.050467096 -0.062061235 -0.039893396 0.065283656
-0.08141806 0.041876644 0.036541887 -0.057410877 0.016607072 -0.023446646 -0.024067963 -0.029616589
-0.002887251 0.03768013 -0.050215814 0.019908894 0.05679262 0.052910145 -0.053528283 0.03998841
0.013126381 0.015371506 0.022229515 0.013739929 0.022296177 0.030273844 0.042094786 -0.05918443
-0.021880675 0.036494628 0.013754209 0.022388695 0.056119792 0.01103522 -0.0026612564 0.07401974
-0.021922968 0.01709203 -0.031848855 0.024583979 -0.012718053 -0.034096997 0.042621784 0.010065498
0.05726106 -0.035977505 0.016570516 0.047954634 0.017024083 0.004711313 0.056467958 0.046640076
0.039007258 0.08112935 0.036006253 -0.023959832 -0.003546739 0.06331193 -0.018352399 -0.012241397
-0.063967854 -0.031145174 0.046694633 0.0002815415 0.038547 0.058907423 -0.04568159 -0.050085306
0.07080983 0.026480636 0.08618844 -0.007594123 0.07916898 0.009045092 0.116595134 0.013884587
0.0079077585 0.0045772274 0.041300755 -0.041285455 -0.06311002 0.008156096 -0.022862546 -0.062162075
0.03001525 -0.031773273 0.01416903 -0.006174557 -0.014215496 0.043767948 -0.008511324 -0.029115036
-0.03695486 0.00848054 0.06332593 -0.007967165 0.045778807 0.014513888 0.033950362 0.013591477
0.04704483 -0.016094685 -0.061793666 0.04473734 -0.042554554 0.041155692 0.05886271 0.0031332974
-0.009682913 0.016139068 -0.0022559515 -0.027571503 0.027041297 0.088333935 0.046380036 -0.004784722
0.026441948 -0.03544359 0.03924038 0.02161468 0.001413891 0.0426721 -0.038632598 -0.0028563808
0.05760109 0.050232604 -0.022599032 0.050060928 0.036224302 -0.06550232 0.073651746 0.03850466
-4.3794593e-05 0.05094819 0.007378865 0.0059960242 -0.049904082 0.032193057 -0.004663397 0.036707424
0.049912795 0.007866836 -0.01659298 0.07825608 -0.035099108 0.018057937 0.049606357 -0.051179234
0.036073327 -0.04485581 0.001098923 0.012566678 -0.07447228 0.028988887 0.061134934 -0.014131274
-0.040238325 0.010373793 0.019135242 -0.0017998707 -0.047102157 -0.007438452 0.030916957 -0.04871232
-0.047030162 -0.007921165 -0.024166306 0.012686329 0.0021996598 -0.0010445141 0.039985765 -0.046450187
-0.03779068 -0.0029679504 -0.034484375 0.022154912 0.054004047 0.05587272 0.02348619 0.06473162
-0.01994986 -0.032718427 -0.01568211 0.012050313 0.043275423 0.052928023 -0.058729272 -6.1768515e-06
-0.07426956 -0.028839136 0.03179503 -0.048565023 -0.03148655 -0.008835731 0.005727675 0.003208884
0.010883331 -0.045932166 -0.0013415923 0.018453136 0.020329507 -0.04909964 -0.03455532 0.031910554
0.023667403 -0.0041022827 -0.036989342 0.04701836 0.04061691 0.007351312 -0.000554853 -0.052398443
0.034643378 -0.010534147 -0.035335254 -0.022970356 0.0366102 -0.006883783 0.013858495 0.028206885
0.04940045 -0.0128405625 -0.041575626 -0.048042398 0.03804767 0.021067342 0.031493325 -0.0068172645
0.011574137 0.027593419 0.04677373 0.031703215 0.016617289 0.06036565 -0.03107966 -0.04967647
-0.006465774 -0.03742142 -0.04659085 0.031652458 0.028484767 0.0061310707 -0.02817963 -0.02218845
-0.023825176 -0.024207747 -0.012509102 -0.020415608 0.010724825 0.00048643205 -0.012730184 0.037972093
00000000: 7b88 86bd b980 03bd ba43 b0bd 51ec debc
00000010: 96b6 4ebd ec33 7ebd 4267 23bd 70b3 853d
00000020: 83be a6bd d886 2b3d f2ac 153d ab27 6bbd
00000030: 8e0b 883c 2e13 c0bc 2d2a c5bc 7d9e f2bc
00000040: 0938 3dbb 7b56 1a3d 19af 4dbd fa17 a33c
00000050: 619f 683d 4fb8 583d 7940 5bbd e3ca 233d
00000060: 0810 573c c5d8 7b3c ac1a b63c 701d 613c
00000070: 79a6 b63c da00 f83c 956b 2c3d 5f6b 72bd
00000080: 1a3f b3bc 647b 153d 5559 613c 7f68 b73c
00000090: dedd 653d 11cd 343c 7968 2ebb a997 973d
000000a0: cc97 b3bc 9604 8c3c f273 02bd 5764 c93c
000000b0: 615f 50bc 4ba9 0bbd 2e94 2e3d c2e9 243c
000000c0: 938a 6a3d 265d 13bd e4be 873c 146c 443d
000000d0: 1776 8b3c 5c61 9a3b f24a 673d aa09 3f3d
000000e0: 13c6 1f3d 2527 a63d 4b7b 133d 6947 c4bc
000000f0: 6870 68bb afa9 813d c557 96bc 2490 48bc
00000100: 9401 83bd 2a24 ffbc df42 3f3d dc9b 9339
00000110: 76e3 1d3d e948 713d 9e1c 3bbd 4026 4dbd
00000120: bf04 913d ebed d83c 9183 b03d 1fd8 f8bb
00000130: 5923 a23d de31 143c 6ec9 ee3d 2e7c 633c
00000140: 8b8f 013c 91fc 953b fb2a 293d f01a 29bd
00000150: d33f 81bd 25a1 053c 3c4a bbbc a99d 7ebd
00000160: 8be2 f53c b124 02bd 3825 683c f053 cabb
00000170: 1de8 68bc 0546 333d 1573 0bbc a882 eebc
00000180: fb5d 17bd f6f1 0a3c 06b1 813d b688 02bc
00000190: 8f82 3b3d a9cb 6d3c 890f 0b3d c9ae 5e3c
000001a0: 14b2 403d 00d9 83bc 5b1b 7dbd 803e 373d
000001b0: af4d 2ebd df92 283d 061a 713d 0258 4d3b
000001c0: 15a5 1ebc 1436 843c 96d8 13bb a2dd e1bc
000001d0: b685 dd3c 6ce8 b43d fef8 3d3d 28c9 9cbb
000001e0: c99c d83c 4c2d 11bd 85ba 203d 4511 b13c
000001f0: 4f52 b93a f1c8 2e3d 373d 1ebd 1e32 3bbb
00000200: 1fef 6b3d b4c0 4d3d 9b21 b9bc b00c 4d3d
00000210: ef5f 143d 1526 86bd bad6 963d 10b7 1d3d
00000220: 16b0 37b8 0daf 503d 68ca f13b 4c7a c43b
00000230: 3968 4cbd dedc 033d 69cf 98bb 865a 163d
00000240: 5c71 4c3d e7e3 003c 00ee 87bc b944 a03d
00000250: 15c4 0fbd 3dee 933c 0930 4b3d 51a1 51bd
00000260: a0c1 133d baba 37bd bd09 903a 78e4 4d3c
00000270: ec84 98bd 1a7a ed3c a068 7a3d dc86 67bc
00000280: f1d0 24bd d7f6 293c 83c1 9c3c a4e9 ebba
00000290: 31ee 40bd 42be f3bb 8f45 fd3c 9286 47bd
000002a0: b3a2 40bd c6c7 01bc 6bf8 c5bc 52da 4f3c
000002b0: 2b28 103b 14e8 88ba 1dc8 233d 8d42 3ebd
000002c0: 66ca 1abd f281 42bb 7d3f 0dbd 387e b53c
000002d0: 5933 5d3d cbda 643d 1c66 c03c 0392 843d
000002e0: e46d a3bc c203 06bd c577 80bc ad6e 453c
000002f0: 9241 313d 0ecb 583d 1b8e 70bd c042 cfb6
00000300: a41a 98bd 0d40 ecbc 813b 023d 1eec 46bd
00000310: 0af8 00bd bec3 10bc 38af bb3b 244c 523b
00000320: 0050 323c 5e23 3cbd 5ed8 afba 082b 973c
00000330: 118a a63c b41c 49bd e189 0dbd a4b4 023d
00000340: 24e2 c13c 716c 86bb 2382 17bd 5396 403d
00000350: eb5d 263d 46e3 f03b 8e73 11ba c09f 56bd
00000360: 37e6 0d3d 6a97 2cbc b3bb 10bd 542c bcbc
00000370: 94f4 153d 5b91 e1bb be0e 633c 2012 e73c
00000380: 2058 4a3d 3961 52bc 344b 2abd 1bc8 44bd
00000390: e0d7 1b3d 6b95 ac3c 25ff 003d 5c63 dfbb
000003a0: 73a1 3d3c 980b e23c d095 3f3d 3bdb 013d
000003b0: fb20 883c f941 773d c59a febc 8e79 4bbd
000003c0: d8de d3bb 3447 19bd 0cd6 3ebd 02a6 013d
000003d0: e358 e93c 26e7 c83b f8d8 e6bc 8dc4 b5bc
000003e0: 042d c3bc 534f c6bc faf2 4cbc a23e a7bc
000003f0: 2db7 2f3c ce07 ff39 4392 50bc a088 1b3d

conv2.0.bias f4 [64]
-0.007837863 -0.015181567 0.04157145 0.01685649 0.015254702 0.045867097 0.032403633 -0.013214009
-0.06556898 0.04660569 -0.05904941 -0.03797911 -0.039967265 0.013223975 0.05466468 0.0027267572
-0.016365375 -0.0110218255 -0.036702912 -0.002609438 0.05407287 -0.0395817 -0.048818786 -0.019952577
0.03970344 -0.05253273 0.0062414478 0.036981262 -0.020081563 0.051390275 -0.045016475 0.028929338
-0.041970655 -0.048127066 -0.06778562 -0.034788705 -0.003048534 -0.00646998 -0.024015674 -0.057685066
-0.0038692593 0.0025158296 0.0075313486 0.041570976 -0.026274638 -0.051999312 -0.019117892 0.02589044
0.049716033 0.02015867 0.046258673 -0.04629966 0.0156452 -0.04342286 -0.04365153 0.01236184
0.01948801 -0.047139037 0.029945537 0.010012194 0.0049802694 0.043409638 0.03362761 0.005826074
00000000: 616a 00bc 1bbc 78bc d346 2a3d 9f16 8a3c
00000010: dcee 793c 23df 3b3d acb9 043d 927f 58bc
00000020: 0849 86bd 9ce5 3e3d cbdd 71bd fc8f 1bbd
00000030: b7b4 23bd 5fa9 583c 12e8 5f3d 65b3 323b
00000040: ae10 86bc e394 34bc cb55 16bd 1b03 2bbb
00000050: 847b 5d3d 6c20 22bd 35f6 47bd 9673 a3bc
00000060: 13a0 223d 8f2c 57bd 0f85 cc3b aa79 173d
00000070: 1782 a4bc 9c7e 523d 3263 38bd 38fd ec3c
00000080: 6ce9 2bbd e320 45bd 30d3 8abd 9a7e 0ebd
00000090: eac9 47bb 2002 d4bb 85bc c4bc 2d47 6cbd
000000a0: 6693 7dbb 9ee0 243b 88c9 f63b 5446 2a3d
000000b0: e93d d7bc 3bfd 54bd 209d 9cbc 3018 d43c
000000c0: 0aa3 4b3d cc23 a53c bc79 3d3d b6a4 3dbd
000000d0: 5d2a 803c 2bdc 31bd f2cb 32bd 5189 4a3c
000000e0: 52a5 9f3c dd14 41bd 5850 f53c 2f0a 243c
000000f0: 8731 a33b 4ece 313d 1bbd 093d a7e8 be3b

conv2.1.weight f4 [64]
0.95120585 1.0673935 0.9416366 1.1023636 0.9010226 1.1549392 0.93222916 1.0412035
1.0205756 1.1006123 0.9330347 1.0202068 0.9475604 0.94776386 1.0163475 1.0107623
0.9532227 1.0770934 0.9258726 1.0100834 1.0187869 0.9323382 0.98039967 1.0477904
1.0481262 1.1019479 0.95596254 1.0030283 0.9383413 1.0275418 0.9819386 0.9346548
0.91032344 1.001276 1.0031359 1.029251 0.95111096 1.016154 1.0550321 1.1096196
0.9949021 0.921007 1.0576078 0.9000243 1.0884769 1.0140542 0.9194068 1.0542463
0.9584698 0.99598587 1.0559644 0.9261054 1.0601193 0.9578725 1.0641894 1.0355822
1.0480884 1.0588664 0.937078 0.9974954 1.036642 0.8905231 0.98892784 1.1334163
00000000: 3a82 733f 5aa0 883f 190f 713f 401a 8d3f
00000010: 6ba9 663f 0cd5 933f 92a6 6e3f 2846 853f
00000020: 39a2 823f dde0 8c3f 5ddb 6e3f 2396 823f
00000030: 5293 723f a7a0 723f ad17 823f a960 813f
00000040: 6706 743f 32de 893f fd05 6d3f 6a4a 813f
00000050: 9c67 823f b7ad 6e3f 79fb 7a3f ff1d 863f
00000060: 0029 863f a10c 8d3f f6b9 743f 3b63 803f
00000070: 2337 703f 7d86 833f 5460 7b3f 8945 6f3f
00000080: f50a 693f d029 803f c266 803f 7fbe 833f
00000090: 027c 733f 5611 823f 4b0b 873f 0408 8e3f
000000a0: e7b1 7e3f 1dc7 6b3f b15f 873f fe67 663f
000000b0: 3653 8b3f 87cc 813f 3e5e 6b3f 8bf1 863f
000000c0: 475e 753f eef8 7e3f d729 873f 3e15 6d3f
000000d0: fdb1 873f 2237 753f 5c37 883f f58d 843f
000000e0: c327 863f ef88 873f 58e4 6f3f dc5b 7f3f
000000f0: afb0 843f 52f9 633f 602a 7d3f c913 913f

conv2.1.bias f4 [64]
-0.070579134 -0.012375877 -0.076108694 -0.08140081 -0.044963762 0.11934681 -0.035237245 -0.0852128
0.04324907 0.07560208 -0.095012456 -0.028624851 0.0031660197 -0.013161943 -0.037290063 -0.08669524
-0.084788606 0.008050805 -0.05930733 -0.037838843 -0.104819566 -0.057203434 -0.0898844 -0.012671417
-0.08325493 -0.014795422 -0.090978466 -0.03292147 -0.056038715 -0.04939423 -0.06581773 -0.04209959
-0.023850616 -0.058247667 -0.0001330176 -0.032262966 -0.07024035 -0.0337102 0.034390643 0.044666834
-0.04964586 -0.08060108 -0.11361299 -0.087456964 0.04080848 -0.03417144 -0.12615314 -0.05496698
-0.03742951 -0.010993285 -0.03933506 -0.07353344 -0.07623364 -0.064922065 -0.066116534 -0.11334873
0.0020216645 0.008674456 -0.116191804 -0.10951149 -0.06511393 -0.107761204 -0.07885088 0.040806055
00000000: cb8b 90bd 31c4 4abc e0de 9bbd 78b5 a6bd
00000010: ec2b 38bd 1a6c f43d ee54 10bd 0c84 aebd
00000020: f025 313d 43d5 9a3d e495 c2bd aa7e eabc
00000030: ff7c 4f3b 31a5 57bc 77bd 18bd 468d b1bd
00000040: a6a5 adbd 86e7 033c 3eec 72bd e7fc 1abd
00000050: a4ab d6bd 264e 6abd 5015 b8bd c69b 4fbc
00000060: 9081 aabd 7f68 72bc eb52 babd aad8 06bd
00000070: da88 65bd 9b51 4abd 72cb 86bd 9f70 2cbd
00000080: 5e62 c3bc 1b95 6ebd a47a 0bb9 2c26 04bd
00000090: 2cda 8fbd b513 0abd 34dd 0c3d 92f4 363d
000000a0: 7559 4bbd 2e12 a5bd edad e8bd a31c b3bd
000000b0: cb26 273d 5af7 0bbd 4a2e 01be 0e25 61bd
000000c0: b04f 19bd 2e1d 34bc cd1d 21bd b398 96bd
000000d0: 6220 9cbd dcf5 84bd 1b68 87bd 6123 e8bd
000000e0: e77d 043b 4e1f 0e3c f8f5 edbd 8f47 e0bd
000000f0: 745a 85bd e8b1 dcbd 927c a1bd 4024 273d

conv2.1.running_mean f4 [64]
0.6152685 -0.56072813 0.5831432 -0.3150379 1.2356137 -1.31903 0.12383669 -0.24268317
-0.73902446 -0.7386612 -0.7406209 -0.4553886 0.08879814 1.0957694 -0.541339 0.3921709
0.7205487 -0.25943667 0.7826407 -0.39118648 0.36466068 0.801179 -0.5469883 -0.7387675
-0.62968934 0.10251979 0.7059719 -0.17355327 0.46025705 -0.17289202 0.83706623 -0.71381354
1.0101019 0.28154868 -0.0035611147 -0.3483506 1.2078373 0.4633185 -0.93222946 -0.75504833
-0.14707051 0.3430575 0.09016391 1.0155092 -0.48793358 -0.49312407 0.66419756 -0.30614343
1.7181418 -0.61523324 -0.15062442 1.2910665 -0.053684954 -0.06331065 -0.38265592 -0.2595381
-1.2425756 -0.33463022 1.4149024 -0.08885217 -0.25500593 0.9639565 -0.62354666 -1.0635672
00000000: 3d82 1d3f e18b 0fbf df48 153f a64c a1be
00000010: 9728 9e3f fad5 a8bf 179e fd3d f081 78be
00000020: b530 3dbf e718 3dbf 5599 3dbf b228 e9be
00000030: cddb b53d 2c42 8c3f 3195 0abf a0ca c83e
00000040: e175 383f e2d4 84be 245b 483f 9849 c8be
00000050: ceb4 ba3e 111a 4d3f 6d07 0cbf de1f 3dbf
00000060: 5233 21bf e5f5 d13d 93ba 343f f3b7 31be
00000070: d0a6 eb3e 9b0a 31be f949 563f 7cbc 36bf
00000080: 054b 813f 2627 903e 9761 69bb 035b b2be
00000090: 6a9a 9a3f 1538 ed3e 97a6 6ebf d94a 41bf
000000a0: a799 16be 3ca5 af3e dba7 b83d 35fc 813f
000000b0: 6ed2 f9be c27a fcbe da08 2a3f d5be 9cbe
000000c0: 12ec db3f ed7f 1dbf 4a3d 1abe ab41 a53f
000000d0: c1e4 5bbd 04a9 81bd 7aeb c3be 2ee2 84be
000000e0: b80c 9fbf a754 abbe 861b b53f 20f8 b5bd
000000f0: 2390 82be dac5 763f c1a0 1fbf f822 88bf

conv2.1.running_var f4 [64]
0.5012657 1.5317129 0.3698993 0.82256794 0.79300743 1.179264 0.2706504 1.049512
1.286211 0.6934727 0.8538213 0.8109452 0.4729979 0.48793036 1.0909226 0.75543064
0.5148492 0.947173 0.3041337 0.671927 1.0391531 0.80565363 1.2585088 0.5189318
1.3713468 1.1746684 0.5425524 0.58643275 0.46209413 0.6735963 0.7245203 0.37300253
0.4777608 0.41454723 1.3037193 0.9216638 1.1345792 0.7480477 0.8306816 1.1816798
1.066099 0.66975045 0.73246473 0.62840044 0.8926359 0.6369035 0.6227863 0.74467826
1.2787577 0.59836674 0.77024275 0.57326216 0.6368757 0.3042225 0.7759332 1.038721
0.6850153 0.884325 1.2343621 1.3511649 0.76474184 0.7522292 0.6598562 0.86373514
00000000: f352 003f 2b0f c43f 7163 bd3e d093 523f
00000010: 8902 4b3f 1ff2 963f b092 8a3e 6956 863f
00000020: 90a2 a43f 6d87 313f 0894 5a3f 1b9a 4f3f
00000030: c82c f23e 02d2 f93e 5aa3 8b3f e763 413f
00000040: 28cd 033f ee79 723f 6ab7 9b3e 6803 2c3f
00000050: f802 853f 513f 4e3f d116 a13f b7d8 043f
00000060: 4b88 af3f 895b 963f b7e4 0a3f 7520 163f
00000070: 9a97 ec3e cf70 2c3f 2a7a 393f 30fa be3e
00000080: 109d f43e 893f d43e 46e0 a63f 29f2 6b3f
00000090: e439 913f 0e80 3f3f 8da7 543f 4941 973f
000000a0: ef75 883f c474 2b3f cf82 3b3f dade 203f
000000b0: c983 643f 1c0c 233f ec6e 1f3f 3ca3 3e3f
000000c0: 55ae a33f 902e 193f a12e 453f 4fc1 123f
000000d0: 490a 233f 0dc3 9b3e 8fa3 463f cff4 843f
000000e0: 2a5d 2f3f 2063 623f 94ff 9d3f f9f2 ac3f
000000f0: 1fc6 433f 1892 403f 56ec 283f bf1d 5d3f

conv3.0.weight f4 [128, 64, 3, 3]
-0.028729921 0.022812061 -0.01291037 -0.005079039 -0.016713891 -0.036386322 0.01715024 0.001880717
-0.009562568 0.043319862 -0.020156605 0.015209164 -0.014100908 -0.017594453 0.012584107 0.046774272
-0.0046324283 0.046152014 0.01122271 -0.026354093 -0.0030995256 0.01601233 0.01160028 0.0112178475
-0.019410178 0.03153237 -0.027270101 -0.011876871 -0.0026146723 0.040488206 0.028661747 -0.030256273
-0.028311491 0.051453415 0.030885428 -0.014398924 -0.011268487 -0.016259894 -0.027630871 0.02922965
-0.0037919777 0.04127418 0.046896916 0.020514067 0.012512663 0.079003826 0.03181413 0.07801791
0.04551364 0.011875648 0.013422205 0.060113203 0.014117072 0.07650927 0.016927114 0.014782265
0.015395842 -0.028609287 0.051785357 -0.057107385 -0.060715135 -0.012616235 -0.035150833 0.023901004
-0.037855532 0.031729832 -0.028986568 -0.05125086 -0.0063196975 0.0053814296 -0.058873035 -0.011139372
0.062170558 0.018558461 0.015298406 0.019289667 -0.015710885 0.012615741 0.07005898 -0.026655281
0.034475345 0.060188804 0.00022303138 0.03470508 -0.03540736 -0.09112987 0.023164323 0.019994503
0.009280464 0.043595303 0.0029172932 -0.028966848 -0.002672012 0.0013104705 0.036313437 0.045627475
-0.0051313452 -0.022789584 0.0382118 0.030932786 0.031091254 0.007443159 0.015891425 0.01476969
-0.024529781 0.012170431 0.033329725 -0.001874932 -0.045811314 0.027158739 0.03082266 0.012211802
-0.024178475 -0.024720158 0.009573098 -0.028747885 -0.018363247 0.005577139 -0.024984317 -0.037618477
-0.025358258 0.021024905 -0.027950067 0.008267798 0.008029789 0.0049047917 -0.0044754823 -0.0280748
0.041395295 0.018766468 0.014175463 0.0446278 -0.024724005 -0.0047485163 0.043320436 0.01722542
-0.03667519 -0.023923049 0.016291745 0.00255329 0.0016445977 -0.023288297 -0.00413737 0.050999254
0.04966666 0.025180394 0.0018103286 0.034295313 -0.009215029 0.011592642 -0.02450709 -0.00089555536
-0.014729511 0.011380698 -0.021341851 0.02268243 0.03256793 -0.041169137 0.02544989 0.024575217
0.0047595026 -0.0023459073 0.012717107 0.021293608 0.011505183 0.037996907 -0.0076939506 -0.003124546
0.024154486 0.033508904 -0.0195595 0.018043473 -0.026519861 0.020301215 -0.022832816 0.03258219
-0.0017672083 -0.019760266 -0.041172814 -0.027341442 0.022469724 -0.021164197 -0.015547292 -0.047191974
0.016773062 0.0041293567 -0.009990116 -0.021671597 -0.05935038 -0.0138879735 0.040894747 0.036896434
-0.010563844 -0.0058713215 0.016379459 0.03014439 0.015182081 -0.007284007 -0.026841912 -0.013325709
0.023161722 -0.0054244217 -0.0486966 -0.0053885705 -0.033384934 -0.031404816 -0.0041910172 0.005058919
-0.01328963 0.0475093 0.0019345981 -0.04806915 -0.03096529 0.009450664 -0.028357485 -0.06581696
0.002827532 -0.0056413007 0.0027598448 0.01286504 -0.00027389557 0.021461472 -0.010543631 0.027762668
0.05379911 0.0034915826 -0.002541383 -0.042892788 -0.011186527 -0.03762475 -0.010106145 -0.010095872
0.007830752 -0.053463064 -0.02151572 -0.01608455 0.0059479144 -0.006281786 -0.023663761 0.03023454
-0.022276679 -0.031246627 -0.03687503 0.035739336 -0.0049599637 0.033257756 0.03689588 0.03435954
0.06340584 0.04356748 -0.0024035966 0.034186233 0.01695166 0.0076318225 -0.0061252895 -0.001367437
00000000: 035b ebbc 5ce0 ba3c 0486 53bc 116e a6bb
00000010: 92eb 88bc d309 15bd a97e 8c3c 6482 f63a
00000020: 51ac 1cbc 2b70 313d 771f a5bc db2f 793c
00000030: 7f07 67bc 3e22 90bc 922d 4e3c 6196 3f3d
00000040: a0cb 97bb e509 3d3d 75df 373c 8ae4 d7bc
00000050: 6921 4bbb 4a2c 833c 1a0f 3e3c 10cb 373c
00000060: 1802 9fbc 1628 013d 8c65 dfbc 3597 42bc
00000070: ec5a 2bbb f6d6 253d 0acc ea3c 01dc f7bc
00000080: 80ed e7bc d1c0 523d 7003 fd3c 77e9 6bbc
00000090: 769f 38bc 7833 85bc 235a e2bc 0573 ef3c
000000a0: d482 78bb 1d0f 293d fb16 403d 1e0d a83c
000000b0: ea01 4d3c c2cc a13d 884f 023d dbc7 9f3d
000000c0: 836c 3a3d 1492 423c cfe8 5b3c 4339 763d
000000d0: 4b4b 673c e4b0 9c3d bbaa 8a3c 5031 723c
000000e0: d73e 7c3c 065e eabc e21c 543d 6fe9 69bd
000000f0: 6fb0 78bd 53b4 4ebc 52fa 0fbd 0acc c33c
00000100: 670e 1bbd 24f7 013d 3d75 edbc 6cec 51bd
00000110: 7715 cfbb b456 b03b da24 71bd ea81 36bc
00000120: 8ea6 7e3d ea07 983c 2aa6 7a3c 5d05 9e3c
00000130: 1db4 80bc 41b2 4e3c 157b 8f3d 2d5c dabc
00000140: 0536 0d3d 8988 763d 88dd 6939 ea26 0e3d
00000150: 4f07 11bd 4ca2 babd 1bc3 bd3c 83cb a33c
00000160: 160d 183c fd90 323d 0f30 3f3b e24b edbc
00000170: ec1c 2fbb 18c4 ab3a 66bd 143d e0e3 3a3d
00000180: d824 a8bb 39b1 babc fa83 1c3d c166 fd3c
00000190: 16b3 fe3c bee5 f33b bc2e 823c 92fc 713c
000001a0: aef2 c8bc 7d66 473c c084 083d 47c0 f5ba
000001b0: a5a4 3bbd 017c de3c ce7f fc3c 0314 483c
000001c0: f011 c6bc ee81 cabc 7cd8 1c3c af80 ebbc
000001d0: 856e 96bc 6fc0 b63b e9ab ccbc d515 1abd
000001e0: 1fbc cfbc 6c3c ac3c 8af7 e4bc a975 073c
000001f0: 608f 033c 60b8 a03b 11a7 92bb 1ffd e5bc
00000200: 1d8e 293d 23bc 993c 3340 683c a4cb 363d
00000210: ff89 cabc 7199 9bbb c570 313d 531c 8d3c
00000220: b938 16bd 45fa c3bc 4476 853c 1955 273b
00000230: 8b8f d73a 19c7 bebc c692 87bb 98e4 503d
00000240: 456f 4b3d 1d47 ce3c 8c48 ed3a 3e79 0c3d
00000250: a2fa 16bc 11ef 3d3c 18c3 c8bc b4c3 6aba
00000260: 0c54 71bc 1b76 3a3c 1bd5 aebc 81d0 b93c
00000270: f365 053d f8a0 28bd 4a7c d03c f751 c93c
00000280: 9af5 9b3b cbbd 19bb 6a5b 503c ef6f ae3c
00000290: 3c80 3c3c a5a2 1b3d 891d fcbb 2fc5 4cbb
000002a0: a1df c53c a240 093d 3f3b a0bc e8cf 933c
000002b0: 2e40 d9bc bc4e a63c e30b bbbc e774 053d
000002c0: aca1 e7ba 48e0 a1bc d3a4 28bd 29fb dfbc
000002d0: 6d12 b83c 8a60 adbc 12ba 7ebc 5f4c 41bd
000002e0: a967 893c 8e4f 873b 95ad 23bc a288 b1bc
000002f0: 6219 73bd 628a 63bc 4081 273d b720 173d
00000300: f913 2dbc 3764 c0bb 372e 863c 5ef1 f63c
00000310: 43be 783c aeae eebb 92e3 dbbc 1354 5abc
00000320: a7bd bd3c 59bf b1bb 1676 47bd 9b92 b0bb
00000330: a4be 08bd 56a2 00bd cd54 89bb 4ac5 a53b
00000340: c0bc 59bc 1d99 423d 5792 fd3a 28e4 44bd
00000350: ebaa fdbc f5d6 1a3c f54d e8bc 0bcb 86bd
00000360: 1d4e 393b a9da b8bb 83de 343b e4c7 523c
00000370: a499 8fb9 f8cf af3c 32bf 2cbc 896e e33c
00000380: 755c 5c3d 09d3 643b 558d 26bb 59b0 2fbd
00000390: b247 37bc 691c 1abd 3f94 25bc 2869 25bc
000003a0: 8e4c 003c 16fc 5abd bc41 b0bc bfc3 83bc
000003b0: b9e6 c23b 71d7 cdbb 81da c1bc 6dae f73c
000003c0: 957d b6bc edf8 ffbc 450a 17bd 6963 123d
000003d0: 3187 a2bb 4939 083d 2220 173d 97bc 0c3d
000003e0: ecda 813d d073 323d a985 1dbb dd06 0c3d
000003f0: 35de 8a3c 5e14 fa3b a7b6 c8bb 923b b3ba

conv3.0.bias f4 [128]
0.02816911 0.022556463 -0.006716581 -0.024918603 0.022882216 0.022354843 0.03741452 0.02679274
0.0145705445 -0.015710277 0.037291564 0.028360251 0.024125801 0.030758515 0.014434435 0.010849293
0.0018463824 -0.038281113 0.01755982 0.03912495 -0.014120947 -0.023854524 -0.036130846 0.042510346
0.010221607 0.031705048 -0.014749791 -0.0375204 0.033486623 0.026640525 0.013561854 -0.03133489
-0.041351985 -0.023405422 -0.038788214 -0.0014444418 0.016774891 0.00918804 0.025084015 -0.031328898
0.02730634 0.034162555 -0.015328576 0.028551843 -0.0057225185 0.027742386 0.039036825 0.0030098504
-0.003589733 0.03666472 0.024457151 0.035747405 -0.004694727 -0.01361151 0.0038408749 0.006931192
-0.0015501364 -0.036018636 0.035727736 -0.01651726 0.005806666 -0.022743924 -0.013025518 -0.036759306
0.0090256715 0.013809875 -0.004947864 0.03091966 -0.03652355 0.037362874 0.010309723 0.032313325
0.025396798 0.019021718 0.035912007 -0.0033200597 -0.042163305 0.0011335083 0.04126732 0.010164083
0.028989047 -0.034055512 -0.025261411 -0.023443876 0.030443633 -0.036727294 -0.03031699 -0.032449525
-0.016406083 -0.008612204 0.024051137 -0.016827377 0.013241663 0.010280328 -0.045415394 0.023112597
-0.0403455 -0.041829396 -0.024293767 0.014449674 -0.006798223 -0.005557509 -0.0018093507 -0.03689605
0.021246208 0.006760219 0.028939826 -0.0067093577 -0.0023585411 -0.0016188208 -0.03468473 -0.011046823
0.0072016455 0.011465434 0.015657399 -0.03522755 0.042611364 0.024977481 0.025664294 0.02783762
-0.014353145 -0.022072116 0.026110465 0.026941517 0.025472397 0.029926866 -0.0268785 0.03360352
00000000: e8c2 e63c 55c8 b83c c416 dcbb 1922 ccbc
00000010: 7c73 bb3c 8121 b73c f83f 193d 737c db3c
00000020: 4bb9 6e3c d7b2 80bc 0abf 183d c253 e83c
00000030: 79a3 c53c 48f9 fb3c 697e 6c3c 3cc1 313c
00000040: 5002 f23a a8cc 1cbd 9dd9 8f3c 7c41 203d
00000050: 8b5b 67bc 906a c3bc f0fd 13bd 541f 2e3d
00000060: 8778 273c 27dd 013d 1ba9 71bc feae 19bd
00000070: 4529 093d 3b3d da3c 8a32 5e3c 0359 00bd
00000080: b360 29bd babc bfbc 64e0 1ebd 6d53 bdba
00000090: 7f6b 893c 6f89 163c fe7c cd3c bb52 00bd
000000a0: 8cb1 df3c 09ee 0b3d b524 7bbc 8ee5 e93c
000000b0: f783 bbbb 0044 e33c 14e5 1f3d e940 453b
000000c0: ba41 6bbb bf2d 163d 5d5a c83c df6b 123d
000000d0: 39d6 99bb d002 5fbc 30b7 7b3b 0d1f e33b
000000e0: f22d cbba 4788 13bd 3f57 123d 344f 87bc
000000f0: d845 be3b 7751 babc fb68 55bc ed90 16bd
00000100: 69e0 133c d042 623c b121 a2bb 3a4b fd3c
00000110: b899 15bd d009 193d 1dea 283c fa5a 043d
00000120: f20c d03c 6fd3 9b3c 7818 133d 5c95 59bb
00000130: 6eb3 2cbd 3a92 943a ec07 293d 4187 263c
00000140: 707a ed3c cb7d 0bbd 05f1 cebc 5f0d c0bc
00000150: ed64 f93c 5c6f 16bd 565b f8bc cbe9 04bd
00000160: 0d66 86bc 341a 0dbc e406 c53c 91d9 89bc
00000170: 8ff3 583c d26e 283c 7e05 3abd a156 bd3c
00000180: 5341 25bd 4d55 2bbd b903 c7bc 53be 6c3c
00000190: a1c3 debb c41b b6bb bc27 edba 5020 17bd
000001a0: 870c ae3c d484 dd3b 3713 ed3c 2cda dbbb
000001b0: c191 1abb 9d2e d4ba 9311 0ebd bcfd 34bc
000001c0: c8fb eb3b 84d9 3b3c f243 803c c34a 10bd
000001d0: 4189 2e3d 939d cc3c ed3d d23c b80b e43c
000001e0: 7429 6bbc 95d0 b4bc 9de5 d53c 75b4 dc3c
000001f0: 7dab d03c 3029 f53c 4d30 dcbc d8a3 093d

conv3.1.weight f4 [128]
1.0920508 1.0665662 1.0829835 1.1511239 1.1147052 1.1048354 1.1374346 1.1069547
1.0717067 1.1265194 1.1099222 1.1360615 1.0828621 1.0909743 1.0999202 1.0889697
1.1423992 1.0774068 1.0794325 1.1002415 1.1115904 1.0806754 1.0916499 1.1067321
1.1350064 1.0870129 1.0949749 1.093445 1.0905608 1.1308572 1.0967193 1.1173658
1.1338872 1.1007375 1.1163286 1.1229124 1.1029568 1.1374868 1.0825057 1.1060449
1.1047777 1.1257392 1.079469 1.1171343 1.1102073 1.0994022 1.1187742 1.1095598
1.1289705 1.0949461 1.1006588 1.1375142 1.0893152 1.1135916 1.0564103 1.0953305
1.0857968 1.1594236 1.0875578 1.1371295 1.1080289 1.1077912 1.1059891 1.1025349
1.1245363 1.1172279 1.0937943 1.1005275 1.1279588 1.1122525 1.0957991 1.1074623
1.074927 1.13882 1.1245316 1.1318368 1.0998069 1.123553 1.0902742 1.1091295
1.1270344 1.1020029 1.1637497 1.0952768 1.149061 1.1186632 1.0812272 1.1210911
1.1206914 1.068569 1.0915251 1.134674 1.1036195 1.1297158 1.1309016 1.0891339
1.1172853 1.1397718 1.1093388 1.1501707 1.1134259 1.0983644 1.0712082 1.0947362
1.060457 1.1597074 1.1526533 1.1212451 1.0750813 1.1085756 1.1105046 1.1488668
1.1080772 1.1114408 1.0954489 1.0702447 1.1167781 1.1172919 1.1233932 1.1249563
1.1014745 1.1386105 1.0982676 1.0899811 1.1074437 1.1453159 1.1364096 1.1541542
00000000: 52c8 8b3f 3e85 883f 349f 8a3f 0758 933f
00000010: a9ae 8e3f 3f6b 8d3f 7597 913f b1b0 8d3f
00000020: af2d 893f ca31 903f ee11 8e3f 776a 913f
00000030: 3a9b 8a3f 0ca5 8b3f 2fca 8c3f 5c63 8b3f
00000040: 233a 923f 77e8 893f d82a 8a3f b7d4 8c3f
00000050: 9848 8e3f 9253 8a3f 2fbb 8b3f 66a9 8d3f
00000060: e447 913f 3d23 8b3f 2328 8c3f 01f6 8b3f
00000070: 7f97 8b3f eebf 903f 4c61 8c3f d805 8f3f
00000080: 3723 913f f7e4 8c3f dbe3 8e3f 98bb 8f3f
00000090: b02d 8d3f 2b99 913f 8c8f 8a3f e192 8d3f
000000a0: 5b69 8d3f 3918 903f 0a2c 8a3f 42fe 8e3f
000000b0: 461b 8e3f 36b9 8c3f fe33 8f3f 0e06 8e3f
000000c0: 1b82 903f 3227 8c3f 63e2 8c3f 119a 913f
000000d0: ae6e 8b3f 2b8a 8e3f 7438 873f ca33 8c3f
000000e0: 64fb 8a3f fe67 943f 1835 8b3f 768d 913f
000000f0: e4d3 8d3f 1acc 8d3f 0d91 8d3f dd1f 8d3f
00000100: cef0 8f3f 5301 8f3f 7401 8c3f 16de 8c3f
00000110: f460 903f 4a5e 8e3f 2543 8c3f 53c1 8d3f
00000120: 3597 893f dbc4 913f a7f0 8f3f 07e0 903f
00000130: 79c6 8c3f 96d0 8f3f 1b8e 8b3f f5f7 8d3f
00000140: aa42 903f 6e0e 8d3f c0f5 943f 0832 8c3f
00000150: 6e14 933f 5b30 8f3f a765 8a3f ea7f 8f3f
00000160: d172 8f3f dec6 883f 18b7 8b3f ff3c 913f
00000170: 6743 8d3f 879a 903f 62c1 903f bd68 8b3f
00000180: 3403 8f3f 0be4 913f d0fe 8d3f cb38 933f
00000190: bd84 8e3f 3497 8c3f 5a1d 893f 5120 8c3f
000001a0: 0ebd 873f 4b71 943f 258a 933f f684 8f3f
000001b0: 449c 893f cee5 8d3f 0425 8e3f 110e 933f
000001c0: 79d5 8d3f b143 8e3f ab37 8c3f c7fd 883f
000001d0: 96f2 8e3f 6c03 8f3f 59cb 8f3f 91fe 8f3f
000001e0: 1efd 8c3f fdbd 913f 0894 8c3f 8084 8b3f
000001f0: b7c0 8d3f b699 923f df75 913f 53bb 933f

conv3.1.bias f4 [128]
0.010064574 -0.00094470935 0.0069982824 0.016741455 0.019526504 0.003826181 -0.015554679 0.02697111
-0.005761837 0.030090582 0.025651768 0.021931756 0.022420576 0.011790997 0.022851048 0.014275973
0.008179945 0.016715279 0.011937103 0.02364472 0.018543184 0.016152063 0.013044964 0.01856927
0.01641844 0.0038093429 0.0121525545 0.0073768497 0.015358316 0.03915572 0.008901582 0.026891798
0.020520769 0.012609458 0.017405218 0.037265446 0.037447765 0.023601297 0.014528026 0.0025717267
0.028189594 0.0023298543 0.00265784 0.01866687 0.029750235 0.032762863 0.018758472 0.014430491
0.028851666 0.010963887 0.012094903 0.022984412 0.0082233865 0.017389925 -0.007982203 0.014251751
0.010768793 0.010776934 0.008396096 0.012650176 0.033780906 0.022109112 0.016907964 0.03816874
0.024742233 0.021718927 0.016622221 0.012928337 0.038011763 0.045415286 0.013501598 0.026108146
0.013153691 -0.0049483045 0.039911572 0.017959705 0.029325463 0.015551934 0.0036568462 0.033819668
0.025829086 0.022355536 0.039274927 0.00024945277 0.01396661 0.010781242 0.010994034 0.018243037
0.00741517 0.0039726067 0.02548285 0.0044172537 0.021255238 0.017295152 0.012452185 0.0127723245
0.015238298 0.027957674 0.016063606 0.013810331 0.005902598 0.030254018 -0.0046211216 0.017666299
0.027832935 0.0635217 0.06720502 0.04134888 0.0015127627 0.009410482 0.022106986 0.07037519
0.013296619 0.0077691646 0.0060704444 0.012519608 0.012770554 0.014672294 0.012242078 0.015798034
0.020994952 0.020682596 0.0063181245 0.02902726 0.019983131 0.034839045 0.01703496 0.03200537
00000000: e2e5 243c 5fa6 77ba d951 e53b 6025 893c
00000010: 0cf6 9f3c aac0 7a3b 0dd9 7ebc 84f2 dc3c
00000020: cbcd bcbb 8680 f63c a823 d23c 3aaa b33c
00000030: 5bab b73c 072f 413c 1f32 bb3c c5e5 693c
00000040: 2d05 063c 7bee 883c d793 433c 92b2 c13c
00000050: e0e7 973c 5551 843c 8bba 553c 951e 983c
00000060: f77f 863c 2ba6 793b 821b 473c 80b9 f13b
00000070: 72a1 7b3c c061 203d f1d7 113c 304c dc3c
00000080: 2c1b a83c e697 4e3c 6395 8e3c a7a3 183d
00000090: d462 193d 8257 c13c f506 6e3c 6a8a 283b
000000a0: dded e63c 78b0 183b 282f 2e3b 44eb 983c
000000b0: c4b6 f33c 5a32 063d 5eab 993c de6d 6c3c
000000c0: 545a ec3c e0a1 333c b329 463c ce49 bc3c
000000d0: 62bb 063c 5175 8e3c c9c7 02bc 2d80 693c
000000e0: 976f 303c bd91 303c c78f 093c af42 4f3c
000000f0: d95d 0a3d 2b1e b53c 9282 8a3c d356 1c3d
00000100: 39b0 ca3c e4eb b13c 532b 883c 60d1 533c
00000110: 39b2 1b3d 6105 3a3d ce35 5d3c c0e0 d53c
00000120: 9482 573c 6325 a2bb 517a 233d 3b20 933c
00000130: f43b f03c 8acd 7e3c b3a7 6f3b 7e86 0a3d
00000140: 8597 d33c f522 b73c bfde 203d fcc8 8239
00000150: 35d4 643c cea3 303c 5220 343c 6c72 953c
00000160: f4fa f23b a42c 823b 69c1 d03c 9cbe 903b
00000170: 771f ae3c 90ae 8d3c 4004 4c3c 0343 513c
00000180: 0eaa 793c 7e07 e53c d397 833c ba44 623c
00000190: 956a c13b 46d7 f73c c76c 97bb eab8 903c
000001a0: e501 e43c aa17 823d c9a2 893d 715d 293d
000001b0: e547 c63a 6c2e 1a3c b619 b53c de20 903d
000001c0: 10da 593c 7a94 fe3b 94ea c63b 0b1f 4d3c
000001d0: 963b 513c 1064 703c ff92 483c e16a 813c
000001e0: 9bfd ab3c 8c6e a93c 4508 cf3b 94ca ed3c
000001f0: aab3 a33c 63b3 0e3d e78c 8b3c 1018 033d

conv3.1.running_mean f4 [128]
-0.2023424 -0.5446993 0.10980303 -0.6849711 0.44993627 0.5970538 0.6273842 -0.14309087
0.13680428 0.26016435 1.0425638 0.06381087 0.13012306 -0.90528905 0.20733716 -0.010844052
0.10526766 1.336972 -0.72450393 0.04464167 -0.619706 0.35143912 0.29211432 0.3178082
0.7548307 -0.26490837 -0.9368444 -0.12785234 0.30436435 -0.9654616 0.7552692 -0.86002374
-1.0671664 0.8492438 -0.73080033 -0.19419792 -0.65823364 -0.0067007304 -0.08749372 -0.7324154
-0.88654125 0.037491083 0.7779084 0.7326134 -0.55069417 -0.13646393 0.5527614 -0.3227822
-0.40014476 0.65525824 0.13214554 0.8897875 0.4669874 -0.89862084 0.68653935 -1.0527574
-0.4039299 1.2318975 -0.11526615 0.04673229 -0.66448927 0.08649661 0.016158525 -0.42807072
-0.22256753 -0.44337428 -0.27891314 0.18593241 -0.5549337 -0.7501343 0.07589671 -0.24323031
0.16802996 0.6133214 -0.33672518 0.5253169 -0.6159034 0.7486077 -0.04854587 -0.74578243
0.8785763 -0.6603752 -0.6597139 1.3351128 -0.02446246 0.6362876 -0.03878468 0.74825674
0.8780994 0.05139106 -0.15930772 0.6984771 0.084646516 -0.1549581 0.96391314 0.05201813
-0.48765162 -1.3014785 0.71823984 0.9530773 0.5027462 0.52326465 0.49795723 -0.55306387
-0.5551108 -0.47309598 -1.3770691 -0.5549758 0.34432584 0.18693347 -0.25157845 -0.5273339
0.6169002 0.2891719 0.33065185 -0.78816044 0.91424906 0.7031904 0.9446135 1.120118
-0.5261843 0.67784166 0.16887057 -0.47890425 -0.0705148 -1.0403984 -0.67567855 0.5587428
00000000: d932 4fbe 6a71 0bbf 69e0 e03d 445a 2fbf
00000010: 0c5e e63e 85d8 183f 409c 203f 6a86 12be
00000020: 6c16 0c3e 4334 853e bb72 853f 46af 823d
00000030: fb3e 053e 06c1 67bf 3150 543e 40ab 31bc
00000040: 9296 d73d e621 ab3f 1779 39bf 2fda 363d
00000050: 0da5 1ebf d4ef b33e 0290 953e c2b7 a23e
00000060: 963c 413f 12a2 87be 09d5 6fbf b9eb 02be
00000070: a5d5 9b3e 7e28 77bf 5359 413f 842a 5cbf
00000080: e998 88bf 0b68 593f bb15 3bbf d2db 46be
00000090: 0082 28bf cd91 dbbb e82f b3bd 937f 3bbf
000000a0: 5ef4 62bf 4090 193d 0125 473f 8d8c 3b3f
000000b0: 4bfa 0cbf 33bd 0bbe c581 0d3f b543 a5be
000000c0: c6df ccbe 01bf 273f 2951 073e 1dc9 633f
000000d0: f918 ef3e 040c 66bf 0bc1 2f3f c1c0 86bf
000000e0: e6cf cebe d1ae 9d3f a910 ecbd 5c6a 3f3d
000000f0: f81b 2abf 2225 b13d e25e 843c 162c dbbe
00000100: bee8 63be f401 e3be b4cd 8ebe 1165 3e3e
00000110: 2310 0ebf cd08 40bf bc6f 9b3d 5e11 79be
00000120: 0c10 2c3e a202 1d3f 3e67 acbe 2b7b 063f
00000130: d8ab 1dbf c1a4 3f3f 09d8 46bd 99eb 3ebf
00000140: 60ea 603f 590e 29bf 03e3 28bf fae4 aa3f
00000150: 7f65 c8bc bfe3 223f afdc 1ebd c18d 3f3f
00000160: 1fcb 603f 6f7f 523d 9021 23be 65cf 323f
00000170: 275b ad3d 56ad 1ebe 03c3 763f f610 553d
00000180: 79ad f9be d996 a6bf 91de 373f e0fc 733f
00000190: fab3 003f acf4 053f 40f4 fe3e 9895 0dbf
000001a0: be1b 0ebf a339 f2be cd43 b0bf e512 0ebf
000001b0: 7a4b b03e 7d6b 3f3e e4ce 80be 5bff 06bf
000001c0: 2ced 1d3f 570e 943e 334b a93e e2c4 49bf
000001d0: 3a0c 6a3f 4904 343f 31d2 713f 0760 8f3f
000001e0: 04b4 06bf 0887 2d3f 68ec 2c3e f032 f5be
000001f0: 106a 90bd c62b 85bf 45f9 2cbf c509 0f3f

conv3.1.running_var f4 [128]
0.28108597 0.2406494 0.28706557 0.4156962 0.25331402 0.3340018 0.40953255 0.491406
0.32598963 0.21015629 0.36805895 0.34827682 0.23724338 0.28096724 0.44703248 0.24989401
0.30535024 0.36781472 0.26096264 0.16598405 0.29322183 0.23597524 0.45832276 0.231853
0.5396259 0.22244532 0.2864973 0.42951608 0.3417946 0.3816672 0.33716968 0.35766387
0.2515182 0.3905926 0.5866233 0.34724808 0.18137723 0.35882843 0.29522166 0.24882482
0.292276 0.39513043 0.33074644 0.2808993 0.2327872 0.42187586 0.40144253 0.41498727
0.3013483 0.3232397 0.41277382 0.3398272 0.27303198 0.31611574 0.33786568 0.42687577
0.23909928 0.6204248 0.3669829 0.33304247 0.3214393 0.2917869 0.53108513 0.21606259
0.3395715 0.38033572 0.243639 0.2577719 0.29190853 0.3972354 0.35122207 0.27242076
0.2760326 0.54521203 0.5580648 0.3051674 0.37242624 0.27790216 0.35856032 0.28438452
0.4096355 0.1832304 0.28940588 0.39703634 0.33229676 0.35333574 0.2505011 0.485059
0.41129744 0.4696796 0.2626125 0.40060115 0.23698509 0.28273296 0.43643594 0.4045698
0.2688854 0.2977892 0.3629786 0.53493613 0.29052722 0.5062057 0.33624414 0.17814015
0.278501 0.4501588 0.25492048 0.34455827 0.3498095 0.33113152 0.3490829 0.36386472
0.23388365 0.27576807 0.27291605 0.2827742 0.31683412 0.40276536 0.33999693 0.3360548
0.23350936 0.49132147 0.29811645 0.2183138 0.31859404 0.2652111 0.31730357 0.3065789
00000000: 80ea 8f3e cc6c 763e 42fa 923e 22d6 d43e
00000010: 60b2 813e 4902 ab3e 40ae d13e 9199 fb3e
00000020: 1de8 a63e 3633 573e 3972 bc3e 5751 b23e
00000030: eeef 723e f0da 8f3e 71e1 e43e 37e4 7f3e
00000040: de56 9c3e 3652 bc3e e59c 853e b9f7 293e
00000050: 2c21 963e 7ea3 713e 48a9 ea3e df6a 6d3e
00000060: ec24 0a3f b5c8 633e c6af 923e 88e9 db3e
00000070: b4ff ae3e e269 c33e 81a1 ac3e b81f b73e
00000080: fec6 803e c1fb c73e f22c 163f 80ca b13e
00000090: f4ba 393e 5cb8 b73e 4b27 973e efcb 7e3e
000000a0: 33a5 953e 894e ca3e 9957 a93e 08d2 8f3e
000000b0: c55f 6e3e 1d00 d83e e089 cd3e 3679 d43e
000000c0: 534a 9a3e ad7f a53e 1757 d33e d5fd ad3e
000000d0: d9ca 8b3e ecd9 a13e bbfc ac3e 768f da3e
000000e0: 71d6 743e 29d4 1e3f 2fe5 bb3e 8b84 aa3e
000000f0: b193 a43e 1865 953e 32f5 073f 833f 5d3e
00000100: 51dc ad3e 5dbb c23e 817c 793e aefa 833e
00000110: 0975 953e 7062 cb3e 61d3 b33e bc7a 8b3e
00000120: 2554 8d3e 0493 0b3f 56dd 0e3f e73e 9c3e
00000130: a7ae be3e 3149 8e3e 3895 b73e d99a 913e
00000140: bfbb d13e c0a0 3b3e 022d 943e 5948 cb3e
00000150: cd22 aa3e 6ce8 b43e ae41 803e a759 f83e
00000160: 9495 d23e d879 f03e 2575 863e 981b cd3e
00000170: 38ac 723e 60c2 903e 8874 df3e c623 cf3e
00000180: 59ab 893e d377 983e 55d8 b93e 93f1 083f
00000190: fcbf 943e b296 013f 3128 ac3e 5f6a 363e
000001a0: af97 8e3e 377b e63e f084 823e f169 b03e
000001b0: 3b1a b33e 128a a93e feba b23e 7a4c ba3e
000001c0: 327f 6f3e 7931 8d3e a7bb 8b3e c8c7 903e
000001d0: 1538 a23e 4337 ce3e 1414 ae3e 600f ac3e
000001e0: 141d 6f3e 7d8e fb3e b8a2 983e a78d 5f3e
000001f0: c21e a33e c0c9 873e 9d75 a23e e9f7 9c3e
