checkpoints/cheater_model_v5.pth (torch, 389795 bytes, 20 tensors)

conv1.0.weight f4 [32, 3, 3, 3]
0	0xbdefeb76	-0.117148325
1	0xbd41b06d	-0.047287393
2	0xbc40d25d	-0.0117689045
3	0xbd952ce9	-0.072839566
4	0xbd6bd598	-0.057576746
5	0xbdd44e93	-0.10366549
6	0x3d3df878	0.046379536
7	0xbe4195be	-0.18904778
8	0xbc53882a	-0.012910882
9	0x3d3504ae	0.044193916
10	0x3e047300	0.12934494
11	0x3d372b17	0.044718828
12	0x3b237a82	0.0024944847
13	0xbd970128	-0.073732674
14	0xbe3f39a6	-0.18674335
15	0xbdc8845c	-0.097908705
16	0x3c61b7f8	0.013776772
17	0x3c902dcd	0.017599965
18	0xbe23384b	-0.15939443
19	0x3ac24ded	0.0014824249
20	0x3abe857a	0.0014535629
21	0x3dd87b72	0.1057042
22	0x3e0543a5	0.13014086
23	0x3c090c23	0.00836471
24	0xbd01f811	-0.031730715
25	0x3dff3870	0.124619365
26	0x3dc1e1d8	0.094669044
27	0xbe15b91f	-0.146214
28	0x3e21cbf7	0.15800463
29	0xbc006e70	-0.00783883
30	0x3e311ca8	0.17296088
31	0x3e095ce8	0.13414347
32	0xbe0daa01	-0.13834383
33	0x3e1aebab	0.15128963
34	0xbe336c49	-0.17521776
35	0x3e198846	0.1499339
36	0xbdf285ae	-0.118419036
37	0x39da2d7e	0.00041614095
38	0x3dd0d9e4	0.10197809
39	0x3e0cf8f0	0.13766837
40	0x3d6cac80	0.057781696
41	0xbd11e8eb	-0.03562252
42	0xbe1d887c	-0.15384096
43	0x3e2c33de	0.16816661
44	0x3e00cf31	0.12579037
45	0xbe153ca7	-0.14573918
46	0xbd9314c3	-0.07181694
47	0xbe1e2a58	-0.1544584
48	0x3d6da842	0.05802179
49	0xbe3a4604	-0.18190771
50	0xbe204c43	-0.15654092
51	0xbdf83963	-0.12120321
52	0x3d83cea9	0.06435902
53	0xbe5859cf	-0.2112801
54	0x3d521baf	0.051295932
55	0xbe47f548	-0.19527161
56	0x3c3c9400	0.011509895
57	0x3c95a8ae	0.01826891
58	0xbdf5b051	-0.1199652
59	0x3cdb65f0	0.026782006
60	0x3e23d186	0.15997896
61	0xbe1155ce	-0.14192888
62	0xbd8fca45	-0.07021002
63	0xbd548a6c	-0.051889822
64	0xbe07a8fb	-0.13248055
65	0x3dddbb51	0.108267434
66	0xbe1cb648	-0.1530391
67	0x3e0e6099	0.13904037
68	0x3cd5603a	0.026046861
69	0xbd91d0a9	-0.07119877
70	0xbe0a4f4a	-0.13506809
71	0x3c067b10	0.008208051
72	0x3dd0ea39	0.102009244
73	0x3e213016	0.15741
74	0xbe06b3fd	-0.13154598
75	0x3d3d75c5	0.046254892
76	0xbded12a3	-0.1157582
77	0xbe0c2d9b	-0.13689272
78	0x3c666da1	0.0140642235
79	0xbde53bd1	-0.1119305
80	0x3dc6514f	0.09683477
81	0x3dd57d7b	0.10424324
82	0xbc3982bb	-0.0113226725
83	0xbcab3f73	-0.020904278
84	0xbdb03beb	-0.086051784
85	0x3d4b5160	0.049638152
86	0x3e3b3664	0.18282467
87	0xbe3df603	-0.18550877
88	0x3da43233	0.08017387
89	0x3e3c468f	0.18386291
90	0x3e5336e8	0.20626414
91	0xbde8aeeb	-0.11361488
92	0xbbc3a048	-0.0059700347
93	0xbc6b6707	-0.014367825
94	0x3e24c527	0.16090833
95	0xbde2c030	-0.11071813
96	0xbe2e7daa	-0.17040125
97	0xbd878b77	-0.06618398
98	0x3dc3cc26	0.095604226
99	0x3e349edb	0.17638724
100	0xbdfffe64	-0.12499693
101	0xbe0be612	-0.13661984
102	0x3e39e946	0.18155393
103	0x3e053d8c	0.1301176
104	0x3d9d21cc	0.07672462
105	0xbcacb7bf	-0.02108371
106	0xbe476111	-0.19470622
107	0x3da2adb4	0.079432875
108	0xbe4fc4ec	-0.20289963
109	0xbde1ba10	-0.11021817
110	0xbe304c89	-0.17216696
111	0x3df4cc6d	0.119530536
112	0x3e2e901b	0.1704716
113	0x3dc2cde5	0.095119275
114	0x3e01b395	0.12666161
115	0x3cebc31d	0.02877956
116	0x3d7f533c	0.062335238
117	0xbbea409a	-0.0071488144
118	0x3d1859ef	0.037195142
119	0x3e38be22	0.1804128
120	0x3cc0d1ad	0.023537481
121	0xbdbdf5f1	-0.09275425
122	0xbd6ba289	-0.057528052
123	0x3e34bbe1	0.17649795
124	0x3d5b202e	0.053497486
125	0xbdf0df37	-0.11761325
126	0xbe438a78	-0.1909579
127	0x3d158a2b	0.03650872
128	0xbde284d4	-0.11060491
129	0x3e07e404	0.13270575
130	0xbd3d831b	-0.04626761
131	0xbd4bbfdf	-0.04974353
132	0x3dd375f3	0.103252314
133	0xbe504fa8	-0.20342886
134	0xbdce8699	-0.10084266
135	0x3e33df54	0.17565662
136	0x3bce2cd8	0.006291967
137	0xbdf6129d	-0.12015269
138	0xbd288f23	-0.04115213
139	0xbe052bd1	-0.13004996
140	0xbe5dff48	-0.21679413
141	0xbe2e5ba7	-0.1702715
142	0xbbfb2759	-0.0076646027
143	0x3da60026	0.08105497
144	0xbe45dd8b	-0.19322793
145	0x3d9934b5	0.07480756
146	0x3d957ffb	0.07299801
147	0xbddf8045	-0.10913137
148	0xbc646382	-0.01393974
149	0xbdebe0a5	-0.11517457
150	0xbe4b096f	-0.19827817
151	0x3de81607	0.113323264
152	0x3c126202	0.0089345
153	0x3df4fd83	0.11962416
154	0xbc2250f0	-0.009906992
155	0xbdd74f9a	-0.1051323
156	0xbe29e8d4	-0.16592723
157	0xbe23e7d9	-0.16006412
158	0xbe0746f1	-0.13210656
159	0xbce46c69	-0.027883725
160	0x3d49d3c4	0.04927422
161	0xbe0b22b0	-0.13587451
162	0xbde85042	-0.11343433
163	0x3e0a17eb	0.13485686
164	0x3d9f1e08	0.077694
165	0xbc815625	-0.015788147
166	0x3c488e2a	0.012240926
167	0x3e003f60	0.12524176
168	0xbe217383	-0.1576672
169	0xbe36db2f	-0.1785705
170	0x3e09a365	0.13441236
171	0x3ceea0bc	0.029129378
172	0x3e2b481f	0.16726731
173	0xbbb04d03	-0.0053802743
174	0xbe4728f8	-0.19449222
175	0xbe026efe	-0.12737653
176	0x3d23b202	0.039964683
177	0xbdd55222	-0.10416056
178	0xbd41c1ed	-0.047304083
179	0x3dd378b9	0.103257604
180	0xbe0d0d5a	-0.13774624
181	0xbd303657	-0.043020573
182	0xbc8e68a3	-0.017383879
183	0x3db47804	0.08811954
184	0x3de91f11	0.113828786
185	0xbd9d9b4e	-0.07695638
186	0xbdb5fbdc	-0.08885929
187	0x3c096320	0.00838545
188	0xbd4d6279	-0.05014274
189	0xbda0bed3	-0.07848897
190	0xbdbca733	-0.09211578
191	0xbd7a4a5e	-0.06110608
192	0x3c3685aa	0.011140266
193	0x3df941b6	0.121707365
194	0xbe364439	-0.17799462
195	0xbe21e02d	-0.15808173
196	0xbe10e852	-0.14151123
197	0xbe0d08c0	-0.13772869
198	0x3ca9230e	0.020646598
199	0xbca454ce	-0.02005997
200	0xbe2f1f04	-0.17101675
201	0xbdf9997f	-0.1218748
202	0xbcffd687	-0.031230224
203	0xbd287b48	-0.041133195
204	0x3d188307	0.037234332
205	0xbdd563d8	-0.10419434
206	0xbd55ba56	-0.052179657
207	0x3b980e5f	0.004640385
208	0x3c4be121	0.012443812
209	0x3c9bb27d	0.019006008
210	0xbe29f432	-0.1659706
211	0x3d394a4f	0.04523688
212	0x3e32ec62	0.17472985
213	0xbac7dd5f	-0.0015248469
214	0xbe1cb898	-0.15304792
215	0x3daa055b	0.08301803
216	0xbe09c5a6	-0.13454303
217	0xbd8ca6dc	-0.068677634
218	0x3e169161	0.14703895
219	0xbd072762	-0.032996543
220	0xbe3573c0	-0.17719936
221	0xbcb416aa	-0.021983463
222	0x3cb5f694	0.022212304
223	0x3e129c3b	0.1431741
224	0xbe20b264	-0.1569305
225	0xbe16940c	-0.14704913
226	0xbc5643e5	-0.013077711
227	0x3df24fe9	0.11831648
228	0xbd0aca32	-0.033884235
229	0xbe12fb60	-0.14353704
230	0x3e0d79e6	0.13816032
231	0xbdf7ed87	-0.121058516
232	0x3e2a047a	0.1660327
233	0x3b70d0b5	0.0036745493
234	0x3e1ac81d	0.151154
235	0xbc59644b	-0.013268541
236	0xbe2a1437	-0.16609274
237	0xbe005c83	-0.1253529
238	0xbe23571b	-0.15951197
239	0xbd9667a4	-0.07343987
240	0xbdc319e3	-0.09526422
241	0xbe0c11f2	-0.1367872
242	0x3e3a2459	0.18177928
243	0xbdf1d473	-0.118080996
244	0x3d814c8c	0.06313428
245	0x3e23e2d6	0.160045
246	0x3e34e4eb	0.1766545
247	0x3d8557ce	0.06510888
248	0xbe2fb28a	-0.17157951
249	0xbdcf9a38	-0.10136837
250	0x3d20d6a5	0.0392672
251	0x3d45b75d	0.048270572
252	0xbcce592f	-0.02518901
253	0xbe36e838	-0.17862022
254	0xbd33aba5	-0.043864865
255	0xbd1d2c11	-0.038372103

conv1.0.bias f4 [32]
0	0x3d425015	0.047439653
1	0xbd5e60f3	-0.054291677
2	0x3e07dcbc	0.13267797
3	0x3d064c6d	0.03278773
4	0x3dd42817	0.10359209
5	0xbe08e73a	-0.13369456
6	0x3c2aaf8d	0.010417831
7	0x39b5bacc	0.00034662185
8	0xbddf6b0c	-0.109090894
9	0xbdca14e2	-0.09867264
10	0x3d7428de	0.059609286
11	0x3e2395fb	0.15975182
12	0x3e08b41b	0.13349955
13	0x3e35ed00	0.1776619
14	0x3e0b0a4c	0.13578147
15	0xbda955be	-0.08268307
16	0x3dd67197	0.10470884
17	0xbe31d8cf	-0.17367862
18	0xbd4c4359	-0.049868915
19	0xbdd0f297	-0.1020252
20	0xbde970da	-0.11398478
21	0xbe3ff9ff	-0.1874771
22	0x3de3590e	0.1110097
23	0xbdbaf7b6	-0.09129278
24	0xbe18f39d	-0.14936681
25	0xbd9538d5	-0.072862305
26	0x3e2bd652	0.16780975
27	0xbd678d5f	-0.056531306
28	0x3cd5deb6	0.026107173
29	0x3dd2c41e	0.10291313
30	0x3ca45914	0.020062007
31	0xbdfd8242	-0.1237836

conv1.1.weight f4 [32]
0	0x3f82e4f8	1.0226126
1	0x3f809503	1.0045475
2	0x3f813588	1.0094461
3	0x3f7d153d	0.9886053
4	0x3f7a86df	0.97862047
5	0x3f82c37f	1.0215911
6	0x3f7d8092	0.9902431
7	0x3f84ed33	1.0384887
8	0x3f8128e1	1.00906
9	0x3f841574	1.0319047
10	0x3f7b285b	0.9810845
11	0x3f81fa21	1.0154458
12	0x3f7de856	0.9918264
13	0x3f7ddbe7	0.9916367
14	0x3f7e1500	0.99250793
15	0x3f80739c	1.0035281
16	0x3f82ac63	1.0208858
17	0x3f84823a	1.0352242
18	0x3f7ca7b1	0.98693377
19	0x3f7ab11e	0.9792651
20	0x3f7e77b5	0.9940141
21	0x3f81a674	1.0128922
22	0x3f821a60	1.0164299
23	0x3f816dd5	1.0111643
24	0x3f7e0f20	0.9924183
25	0x3f81149d	1.0084416
26	0x3f7f2efd	0.99681073
27	0x3f814b96	1.0101192
28	0x3f7c4218	0.9853835
29	0x3f82a4f0	1.0206585
30	0x3f7b2e53	0.9811756
31	0x3f7f195a	0.9964806

conv1.1.bias f4 [32]
0	0xbc2ec743	-0.010667625
1	0xbc8f284b	-0.017475268
2	0x3aeeb874	0.001821293
3	0xbc0a8d01	-0.0084564695
4	0xbc8971cc	-0.016777895
5	0x3cbec2b1	0.023286195
6	0x3c20f9f6	0.00982522
7	0x3cc34cb8	0.023840293
8	0x3cfd2835	0.030902961
9	0x3b7c1688	0.0038465578
10	0xbca768ff	-0.020435808
11	0xbd3164d1	-0.043309037
12	0xbc933100	-0.017967701
13	0xbd2d6148	-0.042329103
14	0xbcce9d3b	-0.025221458
15	0xbbe621b5	-0.007023061
16	0x3c8c01e0	0.017090738
17	0x3cbfccbc	0.023413055
18	0xbd23e7fb	-0.040016156
19	0x3a71649c	0.00092084124
20	0xbccc7fd2	-0.024963293
21	0x3bee41d6	0.007271032
22	0x3c09c92a	0.008409778
23	0xbb7abdee	-0.003826018
24	0xbd154fcc	-0.036453053
25	0x3c21ca08	0.009874828
26	0xbce32846	-0.027729165
27	0xbc64679b	-0.013940717
28	0xbcf6976c	-0.0301015
29	0x3c061ab7	0.00818508
30	0xbd1ad538	-0.037800997
31	0xbc67e61d	-0.014153984

conv1.1.running_mean f4 [32]
0	0x3b8da112	0.0043221796
1	0xbdb63e2a	-0.088985756
2	0x3d7e6d07	0.062115695
3	0x3da9719f	0.08273625
4	0x3dbd55f1	0.09244908
5	0xbe9069ce	-0.28205723
6	0xbcbaf17d	-0.022820229
7	0xbe05767b	-0.13033478
8	0xbe42bc0e	-0.1901705
9	0xbe40d56a	-0.18831411
10	0x3e24221b	0.16028635
11	0x3e27e1f0	0.16394782
12	0x3e0a6443	0.1351481
13	0x3e5d4be3	0.2161098
14	0x3e713e51	0.23558928
15	0xbdd352c3	-0.1031852
16	0xbd3e6652	-0.0464843
17	0xbea17365	-0.31533352
18	0x3d681437	0.056659903
19	0xbdbf2685	-0.09333519
20	0xbe253193	-0.16132192
21	0xbe7895cf	-0.24275897
22	0x3d9134c9	0.07090146
23	0xbde7ff5f	-0.11328005
24	0xbe311ea9	-0.17296852
25	0xbe15b874	-0.14621145
26	0x3e314071	0.17309739
27	0xbe068b2f	-0.13139032
28	0x3e38f294	0.18061286
29	0xbcd0decd	-0.025496865
30	0x3caac8a5	0.020847628
31	0xbe13c73f	-0.14431475

conv1.1.running_var f4 [32]
0	0x3c63e633	0.013909864
1	0x3cef73ff	0.029230116
2	0x3c49af58	0.012309872
3	0x3c2dcb19	0.010607504
4	0x3c4ecab2	0.0126215685
5	0x3d176d85	0.03696968
6	0x3c1420a9	0.00904099
7	0x3d0424d3	0.03226168
8	0x3c922be8	0.017843202
9	0x3c9afe44	0.018920071
10	0x3cb3675e	0.021899875
11	0x3c26019c	0.01013222
12	0x3c582664	0.013192747
13	0x3c32b171	0.010906563
14	0x3cc8812c	0.024475656
15	0x3c00c266	0.007858848
16	0x3d09a6b8	0.03360626
17	0x3d02e440	0.031955957
18	0x3c9a2eda	0.018821169
19	0x3bc86447	0.0061154696
20	0x3c12c447	0.008957929
21	0x3c5b33cd	0.0133790495
22	0x3c486354	0.012230713
23	0x3c5e982f	0.013586088
24	0x3bfc116d	0.007692507
25	0x3c7fb988	0.015608199
26	0x3c354d5a	0.011065805
27	0x3c55aefe	0.01304221
28	0x3d205528	0.03914371
29	0x3ce2d435	0.027689079
30	0x3be9d15a	0.0071355524
31	0x3c59396b	0.013258318

conv2.0.weight f4 [64, 32, 3, 3]
0	0x3d5efc73	0.054439973
1	0x3cb9e776	0.022693377
2	0x3d6092a0	0.054827332
3	0x3cd0c3e8	0.02548404
4	0xbca99119	-0.02069907
5	0x3ca32286	0.019913923
6	0x3bc3b72d	0.005972764
7	0xbc1d8fd4	-0.009616811
8	0x3d43d86a	0.04781381
9	0xbbaa06f0	-0.0051888153
10	0xbc62e314	-0.013848085
11	0x3c1b798f	0.009489431
12	0xbc234704	-0.009965662
13	0x3d4ef178	0.05052325
14	0x3d5ed1dd	0.05439936
15	0x3ce9aed3	0.028525745
16	0x3d4190bc	0.04725717
17	0x3ba8ea6a	0.0051548975
18	0x3d71f22c	0.059068844
19	0x3d3f2d18	0.046673864
20	0x3d69973c	0.057028994
21	0x3d26253b	0.04056285
22	0xbcc703ad	-0.024293745
23	0x3d34c944	0.044137254
24	0x3cae4079	0.021270977
25	0x3d5e8a52	0.05433113
26	0xbc823630	-0.01589498
27	0xbd42e04d	-0.04757719
28	0x3d022eff	0.0317831
29	0xbc01b360	-0.0079163015
30	0x3ccee153	0.025253927
31	0xbc39be6e	-0.011336906
32	0x3cc8e694	0.02452401
33	0xbcb4c4f5	-0.022066573
34	0xbd3c171c	-0.045920476
35	0xbd17f436	-0.037098132
36	0xbc3b6bcb	-0.011439274
37	0xbd58ad3e	-0.05289959
38	0xbd541b93	-0.05178411
39	0x3c74cfe0	0.014942139
40	0xbd3138d9	-0.043267105
41	0xbd54ebde	-0.051982753
42	0xbd439cc7	-0.047756936
43	0x3c9e9a7f	0.019360779
44	0xbd51a060	-0.051178336
45	0xbd2b7cb6	-0.04186698
46	0x3cf9af51	0.030479105
47	0xbd5b83be	-0.053592436
48	0xbd3c1abe	-0.04592394
49	0xbaeb0ba8	-0.0017932551
50	0x3b5a77c6	0.003333555
51	0xbd08c5e3	-0.033391844
52	0xbc283131	-0.010265634
53	0xbcb203b4	-0.021730281
54	0x3cf4c69f	0.029879866
55	0xbd1f1187	-0.038835075
56	0x3cbdf770	0.023189276
57	0xbc83b40e	-0.016077068
58	0x3cad3a95	0.021146098
59	0xbd3ce7f5	-0.04611965
60	0xbd17e99f	-0.037088033
61	0xbcaba534	-0.020952798
62	0x3cc3d3ef	0.023904769
63	0x3c874e93	0.01651696
64	0xbb069adf	-0.0020539088
65	0x3c767572	0.01504265
66	0x3ccfcad9	0.02536528
67	0x3b345eb0	0.0027522258
68	0xbcb5f707	-0.022212518
69	0xbd383e24	-0.044981137
70	0xbd6f7353	-0.05845959
71	0xbd8c6d95	-0.068568386
72	0x3d4f33f4	0.050586656
73	0xbd2e8a5c	-0.04261242
74	0xbc86ae3b	-0.016440501
75	0x3d3645ce	0.044500165
76	0xbd8843d4	-0.06653562
77	0xbd3ca29a	-0.046053506
78	0xbd1b37df	-0.03789508
79	0xbd3fdbf5	-0.046840627
80	0xbc8d58be	-0.01725423
81	0x3c704fd6	0.014667472
82	0x3d53e2d7	0.051730003
83	0x3c652c2d	0.013987583
84	0x3d6f4070	0.05841106
85	0x3c8e97a3	0.01740629
86	0x3c9a0d37	0.01880513
87	0x3d820560	0.063486814
88	0xbcae532f	-0.0212799
89	0xbd3f3c4e	-0.04668837
90	0xbd84ee37	-0.064907484
91	0xbd490396	-0.049075685
92	0xbbe15744	-0.006876858
93	0x3bf64d02	0.0075165043
94	0x3c5199e6	0.01279304
95	0xbca90c9d	-0.020635897
96	0x3d456538	0.048192233
97	0xbd495d33	-0.049161147
98	0x3c90bc42	0.017667893
99	0x3d356954	0.0442899
100	0xbc8563fa	-0.016283024
101	0x3bbc9183	0.005754651
102	0xbd3cafe2	-0.046066172
103	0xbd1bc5e7	-0.03803053
104	0x3ce7aac2	0.028279666
105	0xbbfaea97	-0.00765736
106	0x3b613bff	0.0034368036
107	0x385cc234	5.2632953e-05
108	0x3d08e2ee	0.033419542
109	0x3b76c583	0.0037654347
110	0xbca6f69c	-0.020381264
111	0xbd8d2cd8	-0.06893319
112	0x3d28ae56	0.041181885
113	0xbd0ebbd1	-0.034847084
114	0x3cc4eb01	0.02403784
115	0x3cfd6b83	0.030935055
116	0xbd344672	-0.044012494
117	0xbd41f8bf	-0.047356363
118	0x3d52a737	0.051429
119	0x3cc9ffb0	0.024658054
120	0xbd669a1d	-0.056299318
121	0xbcc7ea5a	-0.02440374
122	0xbc59aadd	-0.013285366
123	0xbda9e0ff	-0.08294868
124	0xbd5b752f	-0.05357855
125	0x3b72690e	0.0036988887
126	0xbcae89a4	-0.021305867
127	0x3c2839b7	0.010267667
128	0xbcb38de3	-0.021918243
129	0xbcce8139	-0.025208103
130	0x3d3179b5	0.04332896
131	0xbb51874e	-0.0031971517
132	0x3cb8d2ce	0.022561457
133	0x3d4c5ab2	0.04989118
134	0x3c2abd94	0.0104211755
135	0x3c8e0d45	0.017340312
136	0x3d3f5b15	0.046717722
137	0x3d1f0002	0.038818367
138	0x3d07471f	0.03302681
139	0x3a90010b	0.0010986639
140	0xbd2f022c	-0.04272668
141	0x3c3784b1	0.01120107
142	0xbd44b929	-0.048028145
143	0xbd69dff7	-0.057098355
144	0xbcca18fc	-0.024670117
145	0x3c8d59ad	0.017254675
146	0xbd06cc80	-0.03290987
147	0x3cee456e	0.029085841
148	0xbb3809f9	-0.0028082116
149	0xbcc25372	-0.02372143
150	0xbd5f5642	-0.05452562
151	0xbd7d8217	-0.06189164
152	0xbd93a11d	-0.07208464
153	0x3c987211	0.018609079
154	0x3cfe664f	0.031054644
155	0x3d35c667	0.044378664
156	0x3d72907d	0.059219826
157	0xbd2751ee	-0.04084962
158	0xbd20d7f4	-0.03926845
159	0x3d11ad44	0.03556563
160	0xbd209d06	-0.03921225
161	0xbd030d8e	-0.03199535
162	0xbcd6d572	-0.026224826
163	0x3cebf0ee	0.028801408
164	0xbd3d6df7	-0.04624745
165	0xbd31e3ff	-0.043430325
166	0x3c74e2ff	0.014946698
167	0xbcbdd6f5	-0.023173789
168	0xbd1518ab	-0.03640048
169	0x3b92123b	0.0044577396
170	0x3d19da87	0.03756192
171	0x3d34e93a	0.044167735
172	0xbc8d5828	-0.01725395
173	0x3d3a2889	0.045448814
174	0x3c2e6320	0.01064375
175	0x3b9f0048	0.0048523284
176	0x3d658435	0.056034286
177	0xbd24b24e	-0.040209107
178	0xbc01baa1	-0.007918031
179	0xbc45ca32	-0.012072133
180	0xbc048462	-0.008088203
181	0xbca8970e	-0.020579841
182	0x3d048821	0.032356385
183	0xbcdcdd0f	-0.026960878
184	0xbd3c532a	-0.04597775
185	0xbd005d69	-0.031339083
186	0x3d5b8ff2	0.053604074
187	0xbd6c682e	-0.05771654
188	0x3ce1edb2	0.027579162
189	0x3cf868f4	0.030323483
190	0x3c6ccba2	0.014452847
191	0x3d9cd30b	0.07657441
192	0x3c5e643d	0.013573703
193	0x3d657ff2	0.05603022
194	0xbcda4710	-0.026645213
195	0x3cdc6abd	0.026906366
196	0x3d21d3cf	0.039508637
197	0x3c97ca2f	0.018529026
198	0x3d710d16	0.05885037
199	0xbc2a24d8	-0.010384761
200	0xbbd1d823	-0.0064039393
201	0x3d8c12fa	0.06839557
202	0x3d38cbaf	0.045116123
203	0xbd41f280	-0.047350407
204	0x3d038f36	0.032119
205	0x3d1ec915	0.038765986
206	0x3d35d4a5	0.044392247
207	0xbc38512a	-0.01124982
208	0xbcf75769	-0.030193048
209	0x3d470381	0.048587326
210	0x3d6a797b	0.05724476
211	0xbcf0ec86	-0.029409658
212	0xbcac4dde	-0.021033224
213	0x3d48b603	0.049001705
214	0xbd26bed0	-0.040709317
215	0x3ce0ae8a	0.027426977
216	0x3d472e42	0.0486281
217	0x3be60d91	0.00702066
218	0xbcd7b803	-0.02633286
219	0x3d106cb7	0.03525993
220	0x3cc29336	0.023751836
221	0x3d2508df	0.040291663
222	0x3d94c8f6	0.07264893
223	0x3d0fdf4f	0.035125073
224	0x3cde79a7	0.027157618
225	0xbd28c61f	-0.041204568
226	0x3d48f69c	0.04906331
227	0x3d868a1a	0.065693095
228	0xbd94965f	-0.072552435
229	0x3d3e8622	0.046514638
230	0xbd3f3449	-0.046680722
231	0xbd40f4f5	-0.04710861
232	0x3c1d799a	0.009611512
233	0x3d09405e	0.03350865
234	0xbce7ffa2	-0.028320137
235	0x3d3a7b40	0.045527697
236	0xbd4e0311	-0.050295893
237	0xbc7ab06d	-0.015300852
238	0xbcc7d67d	-0.024394268
239	0x3cb3b2c3	0.021935826
240	0x3d7ad411	0.0612374
241	0xbd41492a	-0.047188915
242	0x3c7df26f	0.015499695
243	0xbd5fbe76	-0.054624997
244	0xbd1b88d7	-0.037972298
245	0xbd899997	-0.06718748
246	0x3ce2889a	0.027653027
247	0xbd68fec6	-0.056883596
248	0x3d52c237	0.05145475
249	0xbd14aa0e	-0.03629499
250	0x3a56c6c3	0.000819307
251	0xbd2e1f06	-0.042510055
252	0x3d08cbc0	0.033397436
253	0x3d24f481	0.04027224
254	0xbd464525	-0.048405785
255	0xbb9383e2	-0.0045018056

conv2.0.bias f4 [64]
0	0x3c5f79cb	0.013639878
1	0x3c3732d8	0.011181556
2	0xbcc8f159	-0.024529146
3	0xbd4d78ec	-0.05016415
4	0xbbd58836	-0.0065164817
5	0x3c982b44	0.018575318
6	0xbd5f705f	-0.054550525
7	0xbd4170ed	-0.047226835
8	0x3b920427	0.0044560614
9	0x3d31249e	0.04324781
10	0x3c75e76f	0.015008791
11	0xbd64ec87	-0.055889633
12	0x3cf9641e	0.030443247
13	0x3c570e44	0.01312596
14	0xbd081749	-0.03322533
15	0xbcd52447	-0.026018275
16	0x3cff7101	0.031181814
17	0x3d69da36	0.057092868
18	0xbb64c3ed	-0.003490682
19	0xbd44954a	-0.047993936
20	0xbd2aae35	-0.041670043
21	0xbd73682b	-0.059425514
22	0xbd413827	-0.04717269
23	0x3d2154bd	0.039387453
24	0x3d1b13ae	0.037860565
25	0x3cfd913d	0.030953044
26	0xbc541bf8	-0.012946121
27	0xbd2fcc9c	-0.04291974
28	0xbce01690	-0.027354509
29	0xbc8c5e1c	-0.017134719
30	0x3d4fcd23	0.050732743
31	0x3d594217	0.053041544
32	0x3cafdcd1	0.021467598
33	0x3bd012fd	0.00634992
34	0x3d441054	0.047867134
35	0x3c48f202	0.01226473
36	0xbc88c252	-0.016694222
37	0x3c11acc4	0.008891288
38	0x3d262fca	0.04057292
39	0x3d259219	0.040422533
40	0x3cbf7d40	0.023375154
41	0xbd307077	-0.043076005
42	0x3ced7d81	0.028990509
43	0x3bacebc5	0.0052771294
44	0x3b0a20a3	0.0021076582
45	0xbca52d48	-0.020163193
46	0x3d300464	0.042972937
47	0xbcd90a3b	-0.026494136
48	0xbd607b2e	-0.054804973
49	0xbd10691a	-0.035256483
50	0x3d1ed0a7	0.038773205
51	0x3d0c30ac	0.034226105
52	0xbd43eb02	-0.047831543
53	0xbd09cb00	-0.03364086
54	0x3ca3d763	0.020000165
55	0x3cc6649f	0.024217902
56	0xbc9e0039	-0.019287216
57	0x3c8c3b4b	0.017118117
58	0x3d380cf5	0.04493423
59	0x3b162cba	0.0022914843
60	0xbd3a15c8	-0.04543093
61	0xbcfbf242	-0.030755166
62	0x3d4bd296	0.049761377
63	0xbcdad18e	-0.026711252

conv2.1.weight f4 [64]
0	0x3f7b4073	0.98145217
1	0x3f7c42be	0.9853934
2	0x3f790fcc	0.9728973
3	0x3f82f729	1.0231677
4	0x3f7f2414	0.99664426
5	0x3f7e67e7	0.9937729
6	0x3f7fd45e	0.9993342
7	0x3f80cd72	1.0062697
8	0x3f79b244	0.97537637
9	0x3f8160c1	1.0107652
10	0x3f7f1e67	0.99655765
11	0x3f7e4ac4	0.99332833
12	0x3f8019f4	1.000792
13	0x3f78d3bf	0.971981
14	0x3f7bf194	0.98415494
15	0x3f86c645	1.0529257
16	0x3f802836	1.0012271
17	0x3f7803d2	0.9688083
18	0x3f81c628	1.0138597
19	0x3f8005b4	1.000174
20	0x3f7cf96f	0.98818105
21	0x3f796f49	0.9743543
22	0x3f8435a7	1.0328873
23	0x3f805f5f	1.0029105
24	0x3f80de97	1.0067929
25	0x3f7c955b	0.986654
26	0x3f83b969	1.0290958
27	0x3f805080	1.0024567
28	0x3f7f0c12	0.9962779
29	0x3f81c5ca	1.0138485
30	0x3f7cbf00	0.9872894
31	0x3f80f007	1.007325
32	0x3f794d92	0.9738399
33	0x3f80d526	1.0065048
34	0x3f828cd0	1.0199223
35	0x3f842e00	1.0326538
36	0x3f812c27	1.0091599
37	0x3f81d25e	1.0142324
38	0x3f8432cb	1.0328001
39	0x3f83220d	1.0244766
40	0x3f828b32	1.0198729
41	0x3f820e26	1.0160568
42	0x3f820469	1.0157596
43	0x3f854e71	1.0414563
44	0x3f7a10f7	0.97682136
45	0x3f802aae	1.0013025
46	0x3f7feb25	0.9996818
47	0x3f80794d	1.0037018
48	0x3f80921f	1.0044593
49	0x3f805b7f	1.0027922
50	0x3f7bf976	0.9842752
51	0x3f787b76	0.97063386
52	0x3f7c33b8	0.98516417
53	0x3f78a441	0.9712563
54	0x3f858818	1.0432158
55	0x3f7527e1	0.95763975
56	0x3f7b25a6	0.9810432
57	0x3f829cd3	1.0204109
58	0x3f7f3e6f	0.9970464
59	0x3f805562	1.0026057
60	0x3f8299cc	1.0203185
61	0x3f819c2f	1.0125788
62	0x3f83211c	1.0244479
63	0x3f83baf6	1.0291431

conv2.1.bias f4 [64]
0	0xbd3cc322	-0.04608453
1	0xbc947125	-0.018120358
2	0xbd5fc91f	-0.054635163
3	0x3c5b2d83	0.01337755
4	0xbd2c8121	-0.042115334
5	0xbc824c83	-0.015905624
6	0xbcd09e1f	-0.025466023
7	0xbcb4e62c	-0.02208241
8	0xbd3d4c16	-0.04621514
9	0x3a840001	0.0010070802
10	0xbc956962	-0.018238727
11	0xbbf91186	-0.007600966
12	0xbb163ee5	-0.0022925672
13	0xbd35962c	-0.04433267
14	0xbd25820f	-0.040407237
15	0x3d0ddb44	0.034632936
16	0xbcf26d64	-0.029593177
17	0xbd4e4185	-0.050355453
18	0xbc9a4f1a	-0.018836547
19	0x3c101c88	0.008795865
20	0xbd16648c	-0.036716983
21	0xbd200bdf	-0.03907382
22	0xbc1fe72d	-0.009759706
23	0x3c1e26e3	0.009652826
24	0xbbed6ab9	-0.0072453883
25	0xbd59caa8	-0.053171784
26	0x3cad2f34	0.021140672
27	0x3b93be04	0.0045087356
28	0xbcce71b2	-0.025200699
29	0x3c960e69	0.018317418
30	0xbb135e9e	-0.0022486816
31	0xbd365843	-0.044517767
32	0xbd39b387	-0.045337226
33	0xbceaed7b	-0.028677693
34	0x3cd8c6f9	0.026462065
35	0xbb392642	-0.0028251563
36	0xbd183ca1	-0.037167195
37	0x3ba7b6b9	0.005118218
38	0xbbe18be7	-0.0068831327
39	0xbca61f4e	-0.0202786
40	0x3bfdae7d	0.007741748
41	0xbbe94100	-0.0071183443
42	0xbc09af8f	-0.008403673
43	0x3c5f4671	0.013627634
44	0xbcd51f3b	-0.026015868
45	0xbd021a19	-0.03176317
46	0xbbf6399f	-0.007514193
47	0xbd39cbef	-0.0453605
48	0x3b403d2a	0.0029333332
49	0x3bc9a6fb	0.006153939
50	0xbb84f68d	-0.0040577115
51	0xbd6a007a	-0.05712936
52	0xbcb7575a	-0.02238052
53	0xbd2d67eb	-0.042335432
54	0x3cf87d03	0.030333048
55	0xbd3ec37e	-0.046573155
56	0xbd121562	-0.035664923
57	0x3c995b7a	0.018720377
58	0xbcad231f	-0.021134911
59	0xbbd85709	-0.0066021723
60	0xbc01111b	-0.007877613
61	0xbc89dc08	-0.016828552
62	0xbc08ab3f	-0.0083416095
63	0xbccb28c3	-0.02479971

conv2.1.running_mean f4 [64]
0	0xbdd97567	-0.10618096
1	0xbe3f7c7f	-0.18699835
2	0x3eea929f	0.45814988
3	0xbf0310f7	-0.5119776
4	0xbe0b1c5e	-0.1358504
5	0xbdb4f3e1	-0.08835579
6	0xbe4b620d	-0.19861622
7	0x3d362e9c	0.044478044
8	0xbe033e1f	-0.12816666
9	0xbe51215d	-0.20422883
10	0x3ecc402e	0.39892715
11	0xbf16aeef	-0.5886068
12	0x3dccc5d1	0.09998668
13	0x3ecb2563	0.3967696
14	0x3ee6dcee	0.4509043
15	0xbf89e10c	-1.0771804
16	0xbf0babdc	-0.5455911
17	0x3e086f73	0.13323765
18	0x3e146607	0.14492045
19	0xbe2975ae	-0.16548797
20	0x3ebc7776	0.3680989
21	0x3f0fe213	0.56204337
22	0x3e5ad1cb	0.21369092
23	0xbe3e20e8	-0.1856724
24	0xbf5ef729	-0.87095886
25	0x3ebe11bb	0.37122902
26	0xbf14ad26	-0.58076704
27	0xbf06f924	-0.5272391
28	0xbe3f8e3f	-0.18706606
29	0xbf1ea573	-0.61971205
30	0xbf3a139d	-0.7268618
31	0xbd7aae24	-0.06120123
32	0x3eceddf4	0.40403712
33	0x3e150b42	0.14555076
34	0xbe7d7b78	-0.24754131
35	0x3e53c6cc	0.20681304
36	0x3ec6542e	0.387361
37	0x3cf14741	0.029452922
38	0xbf29a253	-0.6626331
39	0x3f0621ae	0.5239514
40	0xbd3bc1a2	-0.04583896
41	0xbf1fb24a	-0.6238142
42	0xbeeb60f5	-0.4597241
43	0x3e05824d	0.13037987
44	0x3e310235	0.17285998
45	0xbe17fe7a	-0.14843169
46	0xbe9fbbc2	-0.31197935
47	0x3e8052cb	0.25063166
48	0xbe00b958	-0.12570703
49	0xbf03ec78	-0.515327
50	0xbf3ad110	-0.72975254
51	0x3f4e386c	0.8055484
52	0xbe5d53d9	-0.21614017
53	0x3ebdf377	0.3709981
54	0xbf1edf56	-0.62059534
55	0x3e9de9a6	0.30842322
56	0x3f052d1a	0.52021945
57	0x3d6c5d0c	0.057705924
58	0xbea68f3b	-0.3253115
59	0xbf5d883a	-0.8653599
60	0x3cc1a4ca	0.023638148
61	0x3f2147d5	0.6300023
62	0xbedb3147	-0.42811033
63	0x3e21c5f2	0.15798166

conv2.1.running_var f4 [64]
0	0x3e892c28	0.267915
1	0x3ea37286	0.31923312
2	0x3f08cf2f	0.5344114
3	0x3f69dd5f	0.9135341
4	0x3e8970d1	0.26843885
5	0x3e5152e8	0.20441782
6	0x3ee9392a	0.45551425
7	0x3e8d7845	0.2763082
8	0x3ec6c024	0.38818467
9	0x3ef38042	0.4755879
10	0x3e35c016	0.17749056
11	0x3f2ca5db	0.67440575
12	0x3e6947af	0.22781251
13	0x3eac8a93	0.33699474
14	0x3e5d793c	0.21628278
15	0x3ec1183b	0.377138
16	0x3e47d64d	0.19515343
17	0x3e9d2c18	0.30697703
18	0x3e76887a	0.24075499
19	0x3e3ad60b	0.18245713
20	0x3e9b19c4	0.30293095
21	0x3e2a5690	0.16634583
22	0x3e3bc8c2	0.18338302
23	0x3e597de6	0.21239433
24	0x3ea54417	0.3227851
25	0x3e5c00b4	0.21484643
26	0x3f0633af	0.5242261
27	0x3ed26807	0.41094992
28	0x3ebab0bc	0.36462963
29	0x3e51364e	0.20430872
30	0x3e7bd355	0.24592336
31	0x3e85d0fe	0.2613601
32	0x3e696fc6	0.22796544
33	0x3e36ddc4	0.17858034
34	0x3e475eb2	0.19469717
35	0x3e9a7947	0.30170652
36	0x3e97d206	0.29652423
37	0x3f50aa3b	0.8150975
38	0x3eb0c7f1	0.34527543
39	0x3e42b716	0.19015154
40	0x3ed63474	0.41836894
41	0x3ed9dc98	0.42551112
42	0x3ea78abb	0.3272303
43	0x3eba0ea6	0.363393
44	0x3ea296d8	0.3175571
45	0x3e2a0ab6	0.16605648
46	0x3ece673f	0.40313146
47	0x3e809b65	0.25118557
48	0x3ebae122	0.36499888
49	0x3eabe074	0.33569682
50	0x3f12fac2	0.57413876
51	0x3f420859	0.7579399
52	0x3e7617c4	0.24032503
53	0x3e8dbed3	0.2768465
54	0x3ec1faa3	0.37886533
55	0x3ec1b620	0.37834263
56	0x3ea45f86	0.3210413
57	0x3f8301b6	1.0234897
58	0x3e40ddf4	0.18834668
59	0x3ed8f8db	0.42377362
60	0x3e811fd2	0.2521959
61	0x3e4cbff6	0.19995102
62	0x3ea0e3ee	0.31423897
63	0x3e60efff	0.21966551

conv3.0.weight f4 [128, 64, 3, 3]
0	0x3b956f5e	0.004560395
1	0xbc832ace	-0.016011622
2	0x3d2a41d9	0.041566703
3	0xbc9c53ce	-0.01908293
4	0x3c97aaee	0.018514123
5	0xbce2608e	-0.027633931
6	0x3d2370e3	0.03990258
7	0xbd420c57	-0.04737505
8	0x3c327c40	0.010893881
9	0x3c007a76	0.007841697
10	0xbc6ac032	-0.0143280495
11	0x3cef5478	0.029215083
12	0xbc54ba88	-0.012983926
13	0x3cffb3bd	0.031213636
14	0x3890ca5e	6.904149e-05
15	0x3d2f20c8	0.042755872
16	0xbcfc33c2	-0.030786399
17	0xbc94c62d	-0.018160904
18	0x3d54f07b	0.051987153
19	0x3d6154fd	0.05501269
20	0x3cd348d1	0.025791558
21	0x3d0de45a	0.0346416
22	0x3cca909f	0.024727164
23	0x3d5d4ebc	0.054030165
24	0xbd03c221	-0.032167558
25	0x3ca2803e	0.019836541
26	0x3d100a99	0.035166357
27	0x3cafdc56	0.021467369
28	0xbd083d2c	-0.033261463
29	0x3d17ec9f	0.037090894
30	0x3ceb2556	0.028704327
31	0x3cc1b7d2	0.023647223
32	0x3d00bcf9	0.03143022
33	0x3c755ee5	0.014976238
34	0x3cbfe0cf	0.023422627
35	0xbd0071ef	-0.031358656
36	0xbc29bc7a	-0.010359878
37	0x3ca40809	0.020023363
38	0xbbee0409	-0.0072636646
39	0x3d56130c	0.05226426
40	0x3c04f54f	0.008115127
41	0xbc17edfb	-0.009273048
42	0x3cce5e81	0.025191547
43	0xbc465449	-0.012105056
44	0xbcebca94	-0.02878312
45	0xbd0cd39c	-0.034381494
46	0xbd0b0224	-0.03393759
47	0xbc25f6e8	-0.010129668
48	0x3c88fd81	0.016722443
49	0x3d23b6c6	0.03996923
50	0x3c2a6b21	0.010401518
51	0x3ca32179	0.019913422
52	0xbb9cebef	-0.0047888677
53	0x3c3e5391	0.0116166035
54	0x3cfe7e12	0.031065974
55	0x3c55384a	0.013013909
56	0x3cc91cab	0.024549803
57	0x3d362a35	0.044473846
58	0x3c24953a	0.010045344
59	0xbcc04fad	-0.023475492
60	0x3ccf3dfd	0.025298113
61	0x3cdd22d7	0.026994152
62	0xbc9ee136	-0.019394498
63	0x3cf74843	0.030185824
64	0xbc0dfc12	-0.008666055
65	0xbb763064	-0.0037565464
66	0xbc0e153d	-0.008672056
67	0x39cf432a	0.00039532158
68	0x3d4f828e	0.050661616
69	0x3d0e3af9	0.03472421
70	0x3cc42452	0.0239431
71	0x3d390793	0.04517324
72	0x3b5882cc	0.0033036945
73	0x3b53a9af	0.0032297184
74	0xbc2cc5f0	-0.010545239
75	0xbc104524	-0.008805547
76	0xbc76f17d	-0.015072224
77	0xbcd19cd8	-0.025587484
78	0xbb936ed3	-0.0044992953
79	0xbc3d1532	-0.011540698
80	0xbd50ba63	-0.050959002
81	0xbccaaae4	-0.02473969
82	0x3cf5eae2	0.030019227
83	0xbd1564e1	-0.03647316
84	0xbc28f806	-0.01031304
85	0xbbbca6dc	-0.005757196
86	0xbb213c73	-0.002460268
87	0xbcd35b76	-0.025800448
88	0x3c4e82a2	0.0126043875
89	0x3d3e8e20	0.04652226
90	0xbd730cb6	-0.059338294
91	0x399ced4e	0.00029931444
92	0xbd3748c3	-0.044747125
93	0xbd392df9	-0.04520986
94	0x3bccbef3	0.006248349
95	0x3cb3ec48	0.021963254
96	0x3c89c2f7	0.0168166
97	0x3c12bb41	0.008955778
98	0x3d1b2825	0.03788008
99	0xbd02c052	-0.031921692
100	0x3c202924	0.009775434
101	0xbcadcca7	-0.02121575
102	0xbc65c642	-0.014024319
103	0xbd42e3d8	-0.04758057
104	0x3d0075d4	0.03136237
105	0x3d33b79f	0.043876287
106	0x3ce66042	0.028122071
107	0xbcab499c	-0.020909123
108	0x3d46fbb6	0.048579894
109	0xbbda4913	-0.006661543
110	0x3c163fa2	0.009170445
111	0x3cb5cae9	0.022191482
112	0xbcc95713	-0.024577653
113	0x3cde4e72	0.027137015
114	0x3cd6197b	0.026135197
115	0x3c44247d	0.01197159
116	0x3d27f0c3	0.041001093
117	0x3c88c06b	0.016693315
118	0x3c59d616	0.013295671
119	0x3d58f86b	0.052971285
120	0xbc031744	-0.008001152
121	0xbbe3e66e	-0.0069549596
122	0x3c3f562e	0.011678262
123	0xbced92cf	-0.029000668
124	0x3c24beb0	0.010055229
125	0x3cd21897	0.025646491
126	0xbca7b906	-0.020473968
127	0xbccf9ae6	-0.025342416
128	0x3d482537	0.048863616
129	0xbd2d1309	-0.04225448
130	0x3b523f25	0.0032081094
131	0x3cf38e8b	0.029731056
132	0xbcd57097	-0.026054664
133	0xbc2d96f1	-0.010595069
134	0x3cfb853d	0.030703181
135	0xbc056811	-0.008142487
136	0x3ac5d2f8	0.0015092781
137	0xbd231efc	-0.03982447
138	0xbcea32bd	-0.028588647
139	0xbd3374a4	-0.04381241
140	0xbca137cf	-0.019679932
141	0x3c2fa4e5	0.010720466
142	0x3c4d5957	0.012533507
143	0xbb2b213d	-0.002611234
144	0x3cd47279	0.025933491
145	0x3d10a130	0.03530997
146	0x3cba1844	0.022716649
147	0xbb3655e6	-0.0027822196
148	0xbb5140cb	-0.0031929489
149	0x3bfe07bf	0.0077523883
150	0xbd13f883	-0.03612567
151	0x3cf1b599	0.029505538
152	0xbbf9e06f	-0.0076256315
153	0x3b260899	0.0025334714
154	0xbc54ccc0	-0.012988269
155	0x395d33fe	0.00021095571
156	0x3ce06e32	0.027396295
157	0x3c3471ec	0.011013489
158	0x3cbc2cbf	0.022970555
159	0x3c9dfd0a	0.019285697
160	0xbc8ca560	-0.0171687
161	0x3cb8a193	0.022537982
162	0xbc0b161a	-0.008489156
163	0xbd81bc69	-0.063347645
164	0xbcfaf715	-0.030635396
165	0x3c040475	0.008057703
166	0xbca9d755	-0.020732561
167	0xbd2a4ffc	-0.041580185
168	0x3ced2b02	0.028951172
169	0x3c6b0da8	0.014346518
170	0xbd0b3d98	-0.033994287
171	0x3c7d1a5f	0.015448182
172	0xbce33686	-0.02773596
173	0x3d74164b	0.059591573
174	0x3c907263	0.017632669
175	0x3d364a8c	0.044504687
176	0x3cfb1f7a	0.030654658
177	0x3c184400	0.009293556
178	0x3d207f3e	0.039183848
179	0xbc76a436	-0.015053799
180	0xbd23c1e8	-0.039979845
181	0x3cb68d3b	0.02228414
182	0xbc268293	-0.010162967
183	0x3ce240d4	0.027618803
184	0x3c11a33b	0.008889015
185	0xbb3a2f6d	-0.0028409616
186	0x3ca06a20	0.019581854
187	0x39f91417	0.0004750795
188	0xbcf25c62	-0.029585067
189	0xbd08f61f	-0.033437844
190	0xbc470a3c	-0.012148436
191	0x3ce7471f	0.028232155
192	0x3b704474	0.0036661895
193	0xbcb3e05f	-0.021957574
194	0xbcc96bdb	-0.024587562
195	0x3c427d9e	0.01187077
196	0xbd3a68c9	-0.045510087
197	0x3bf1e5f7	0.0073821503
198	0xbc3494a2	-0.011021765
199	0xbcc68000	-0.024230957
200	0xbd0dedec	-0.034650728
201	0xbcb573d1	-0.022149952
202	0xbd0ed500	-0.0348711
203	0x3c01df67	0.007926798
204	0x3bdee05f	0.0068016495
205	0xbc682cd9	-0.014170849
206	0xb9153f63	-0.0001423336
207	0x3cc42d9b	0.023947528
208	0xbd146ac7	-0.036234643
209	0x3ca2f566	0.019892406
210	0x3cd4d03d	0.025978202
211	0x3d47eeea	0.04881183
212	0x3c319c1b	0.010840441
213	0xbbd17fcd	-0.006393409
214	0x3cdd66f2	0.027026627
215	0x3a832104	0.0010004346
216	0x3bceabab	0.0063070855
217	0xbcd1e38b	-0.025621196
218	0xbadcc79f	-0.001684416
219	0xbc3d5103	-0.011554959
220	0x3b94d023	0.0045414134
221	0x3d68360e	0.056692176
222	0xbc90f076	-0.017692786
223	0x3cd71a87	0.026257766
224	0xbc828e3e	-0.015936967
225	0x3d5caa30	0.05387324
226	0x3c307b1e	0.010771541
227	0xbcd608e7	-0.026127292
228	0xbb94162e	-0.0045192456
229	0xbc9d6b80	-0.019216299
230	0xbcdcb175	-0.026940087
231	0xbd225d1a	-0.03963957
232	0xbd0d61c9	-0.034517083
233	0x3d47b647	0.048757818
234	0x3c309adb	0.010779108
235	0xbd243414	-0.040088728
236	0xbc6511c6	-0.013981288
237	0xbc5093ae	-0.012730522
238	0x3c8ceef3	0.017203784
239	0xbacca3e7	-0.0015612812
240	0x3d048000	0.032348633
241	0x3c01b7b5	0.007917334
242	0xbccd53f3	-0.025064444
243	0xbb9b458d	-0.0047385157
244	0x3d0a955d	0.03383385
245	0x3cd3fe40	0.025878072
246	0xbc9bb313	-0.019006288
247	0x3cdf2e4d	0.027243758
248	0x3cdee480	0.027208567
249	0xbcb3d495	-0.021951953
250	0xbcd3bbbb	-0.025846353
251	0x3d1757ae	0.036948852
252	0xbca56968	-0.020191863
253	0xbc10a0b6	-0.008827379
254	0xbb0059dc	-0.001958481
255	0xbd29832a	-0.041384853

conv3.0.bias f4 [128]
0	0x3ca7033d	0.020387286
1	0xbb7577a7	-0.0037455352
2	0x3cd2b626	0.02572162
3	0x3c3c7f66	0.0115049835
4	0xbc5570dd	-0.013027397
5	0x3c9d628b	0.019212028
6	0x3d04061b	0.032232385
7	0xbd0905c5	-0.033452768
8	0x3a89a487	0.0010501303
9	0xbc8906f9	-0.016726958
10	0xbca78697	-0.02044992
11	0x3b73ab12	0.0037180823
12	0x3d11608c	0.035492465
13	0x3cf7c7db	0.030246666
14	0xbcec2dcd	-0.028830433
15	0x3ce42e39	0.027854072
16	0xbb434abd	-0.0029799186
17	0xbc8b76ad	-0.017024362
18	0x3cb1022f	0.021607487
19	0xbcee46a7	-0.029086424
20	0x3d1aa737	0.037757125
21	0xbcbaea3d	-0.022816772
22	0x3b2da1fc	0.0026494255
23	0xba1a6a00	-0.0005890429
24	0x3d2675f9	0.04063985
25	0xbc66029a	-0.014038706
26	0xbd18be7e	-0.037291043
27	0xbc643856	-0.013929447
28	0xbcb09adc	-0.021558218
29	0x3d234da5	0.03986897
30	0xbcc75331	-0.024331661
31	0xbbfdad39	-0.007741597
32	0xbca71a04	-0.020398147
33	0xbb581e8b	-0.003297719
34	0x3cf1261c	0.029437117
35	0xbd26dc9c	-0.040737733
36	0xbb6b61ca	-0.003591644
37	0x3d27832d	0.040896583
38	0xbbef1b9b	-0.007296992
39	0x3d2393eb	0.039935987
40	0xbd1b05f4	-0.037847474
41	0x3d0bd026	0.034134053
42	0xbc0a6505	-0.0084469365
43	0x3d1f1e0c	0.038847014
44	0xbc9e3285	-0.019311199
45	0x3d0cd916	0.034386717
46	0xbcd402ee	-0.025880303
47	0x3d2a43d2	0.041568585
48	0x3c85f329	0.0163513
49	0xbca0e0dc	-0.019638471
50	0x3c4aa43b	0.012368257
51	0xbce2cda9	-0.027685957
52	0x3d2485eb	0.040166777
53	0xbd0b0c7d	-0.033947457
54	0x3ccb32f6	0.024804574
55	0x3cf890dd	0.030342514
56	0xbd261845	-0.04055049
57	0xbcb7f718	-0.02245669
58	0x3c85ac59	0.016317533
59	0x3cebfed8	0.028808042
60	0xbc3c727d	-0.0115019055
61	0x3d068b53	0.032847714
62	0xbc2f78bc	-0.010709938
63	0x3ce987c7	0.028507126
64	0xbc7dd00e	-0.015491499
65	0xbcf2ab27	-0.029622627
66	0xbc955657	-0.018229647
67	0xbbe9e44f	-0.007137812
68	0xbd188e15	-0.037244875
69	0xbcf0ac7f	-0.029379128
70	0x3cb95f45	0.022628436
71	0xbcaba494	-0.0209525
72	0x3d0aaef2	0.033858247
73	0xbcc0b3d4	-0.023523249
74	0xbcb8c36c	-0.022554122
75	0x3d1377f0	0.036003053
76	0x3c0aa1b2	0.008461403
77	0xbcb4973e	-0.022044774
78	0xbc916c17	-0.017751737
79	0x3cb7bc1d	0.022428567
80	0xbd1137ea	-0.035453714
81	0x3c391de8	0.011298634
82	0x3c550b59	0.013003194
83	0x3c6670ff	0.014065026
84	0x3b1671d1	0.0022956023
85	0x3995d119	0.00028575285
86	0xbc596ab7	-0.013270072
87	0x3d1520d8	0.036408275
88	0x3c439a6d	0.011938673
89	0x3d1ee334	0.038790897
90	0x3d232dc1	0.039838556
91	0xbcdaf35a	-0.026727367
92	0xbce30557	-0.027712507
93	0xbbd1258f	-0.006382651
94	0x3cab24a8	0.020891502
95	0xbb6cb44c	-0.0036118207
96	0xbc1b61c6	-0.00948376
97	0x3d04a2e3	0.032381903
98	0x3c4199ef	0.011816486
99	0x3ca4bab6	0.020108562
100	0xbc4d0f83	-0.012515905
101	0x3d2252c8	0.039629728
102	0xbce7add6	-0.028281134
103	0xbd269abc	-0.04067491
104	0xbce4839e	-0.027894791
105	0x3ccee18a	0.02525403
106	0xbcdcf025	-0.026969979
107	0x3cdef400	0.027215958
108	0xbd165e5e	-0.03671109
109	0xbcfec4c7	-0.03109969
110	0xbce263e7	-0.027635528
111	0x3c7b590e	0.0153410565
112	0xbd20d1c5	-0.03926255
113	0x3cd9c8b4	0.02658496
114	0x3b7ce448	0.0038588215
115	0x3c87adc0	0.016562343
116	0x3c5be7e2	0.013421984
117	0xbc5466ec	-0.012963992
118	0xbd011295	-0.03151186
119	0xbc96673b	-0.018359771
120	0x3c657cad	0.014006776
121	0xbc833cd7	-0.016020222
122	0xbb22c237	-0.0024835
123	0x3d2c4f80	0.042068005
124	0x3c070260	0.008240312
125	0xbcec7346	-0.02886356
126	0xbd004040	-0.031311274
127	0xbaa13213	-0.0012298248

conv3.1.weight f4 [128]
0	0x3f84c2d8	1.0371962
1	0x3f84af22	1.0365946
2	0x3f86c01c	1.0527377
3	0x3f85f62d	1.0465752
4	0x3f85ed80	1.0463104
5	0x3f85b542	1.044594
6	0x3f83803f	1.0273513
7	0x3f876460	1.0577507
8	0x3f86e0ad	1.0537316
9	0x3f84a9aa	1.0364277
10	0x3f84b28a	1.0366986
11	0x3f873318	1.0562468
12	0x3f84e95d	1.0383717
13	0x3f83105b	1.0239366
14	0x3f8201e3	1.0156826
15	0x3f844e7f	1.0336455
16	0x3f85ec1c	1.046268
17	0x3f84ba33	1.0369323
18	0x3f8342c2	1.0254748
19	0x3f8638e8	1.0486116
20	0x3f82b040	1.0210037
21	0x3f84de68	1.0380373
22	0x3f83dc6d	1.0301644
23	0x3f8470e9	1.0346957
24	0x3f845df3	1.0341171
25	0x3f8364ee	1.0265176
26	0x3f8478cc	1.0349364
27	0x3f848875	1.0354143
28	0x3f82a9a9	1.0208026
29	0x3f843533	1.0328735
30	0x3f857c3b	1.0428537
31	0x3f85d493	1.0455498
32	0x3f82dcb9	1.0223609
33	0x3f83289b	1.0246767
34	0x3f871bd4	1.0555367
35	0x3f860848	1.0471277
36	0x3f884b98	1.0648069
37	0x3f83837b	1.02745
38	0x3f850783	1.0392917
39	0x3f849677	1.0358418
40	0x3f84a0a5	1.0361525
41	0x3f860245	1.0469443
42	0x3f838e56	1.0277812
43	0x3f842b88	1.0325785
44	0x3f8542fb	1.0411066
45	0x3f858906	1.0432441
46	0x3f84fbc9	1.0389339
47	0x3f84cc5c	1.0374866
48	0x3f857065	1.0424925
49	0x3f84b601	1.0368043
50	0x3f8444f6	1.0333545
51	0x3f823a18	1.0173979
52	0x3f8627da	1.0480912
53	0x3f836d30	1.0267696
54	0x3f870269	1.054761
55	0x3f864f59	1.0492965
56	0x3f85318f	1.0405749
57	0x3f82da10	1.0222797
58	0x3f867a6b	1.0506109
59	0x3f830bde	1.0237997
60	0x3f826aea	1.0188878
61	0x3f859501	1.0436097
62	0x3f855fb3	1.041983
63	0x3f84e0bc	1.0381083
64	0x3f83b49b	1.0289491
65	0x3f850764	1.039288
66	0x3f849c01	1.0360109
67	0x3f84798a	1.0349591
68	0x3f84fe3f	1.039009
69	0x3f854161	1.0410577
70	0x3f851e14	1.0399804
71	0x3f846ffd	1.0346676
72	0x3f8403fb	1.0313715
73	0x3f84d9f9	1.037902
74	0x3f841541	1.0318986
75	0x3f84c047	1.0371178
76	0x3f848954	1.0354409
77	0x3f848dd3	1.0355781
78	0x3f83b5c4	1.0289845
79	0x3f83d80a	1.0300305
80	0x3f885776	1.0651691
81	0x3f851af1	1.0398847
82	0x3f8448ae	1.033468
83	0x3f845d4a	1.034097
84	0x3f8648e8	1.0490999
85	0x3f8638a6	1.0486038
86	0x3f834e7d	1.0258328
87	0x3f81c554	1.0138345
88	0x3f82f9e5	1.0232512
89	0x3f837d7a	1.0272667
90	0x3f854dcb	1.0414366
91	0x3f88152c	1.0631461
92	0x3f85774f	1.0427035
93	0x3f848a49	1.0354701
94	0x3f838403	1.0274662
95	0x3f85addf	1.0443686
96	0x3f85b147	1.0444726
97	0x3f84729c	1.0347476
98	0x3f85e9f1	1.0462018
99	0x3f8541f6	1.0410755
100	0x3f850d25	1.0394636
101	0x3f84cd88	1.0375223
102	0x3f85ceb3	1.0453705
103	0x3f863bf1	1.0487043
104	0x3f86fc68	1.0545778
105	0x3f84726e	1.0347421
106	0x3f85e3be	1.0460126
107	0x3f855452	1.0416358
108	0x3f86ccf2	1.0531294
109	0x3f859f94	1.0439324
110	0x3f836819	1.0266143
111	0x3f857223	1.0425457
112	0x3f8483d2	1.0352728
113	0x3f86d030	1.0532284
114	0x3f83451f	1.0255469
115	0x3f821d17	1.0165128
116	0x3f82ffd4	1.0234323
117	0x3f83d8c5	1.0300528
118	0x3f860521	1.0470315
119	0x3f823743	1.0173115
120	0x3f864888	1.0490885
121	0x3f8518dc	1.0398211
122	0x3f84f75c	1.0387988
123	0x3f86e386	1.0538185
124	0x3f859120	1.0434914
125	0x3f844dda	1.0336258
126	0x3f864684	1.049027
127	0x3f864631	1.0490171

conv3.1.bias f4 [128]
0	0x3bfa449f	0.007637575
1	0x3b2f61b5	0.0026761119
2	0x3d179271	0.03700489
3	0x3ceda537	0.029009445
4	0x3cbe81a7	0.023255182
5	0x3bfad9e6	0.00765537
6	0x3c12cc2d	0.008959812
7	0x3cb2258d	0.021746421
8	0x3cd66a06	0.026173603
9	0x3c90c499	0.01767187
10	0x3b76a949	0.0037637523
11	0x3ca536bf	0.020167707
12	0x3c76a0fa	0.015053028
13	0x3c72fc06	0.014830595
14	0xbb410178	-0.0029450338
15	0x3c27c2cd	0.010239315
16	0x3ce51a13	0.027966535
17	0x3c0d20f6	0.0086138155
18	0x3c835dd7	0.016035957
19	0x3c222f1d	0.009898928
20	0x3c134876	0.008989444
21	0x3ca71ba0	0.020398915
22	0x3c6a8643	0.014314237
23	0xbad1fdfd	-0.0016021129
24	0x3c8399a6	0.016064476
25	0x369c9830	4.6668792e-06
26	0x3cd51e17	0.026015325
27	0x3bd2efa8	0.0064372607
28	0x3c425b45	0.011862581
29	0x3c873e58	0.01650922
30	0x3cb08252	0.021546517
31	0x3cc55128	0.02408655
32	0x3c86116e	0.016365733
33	0xbb48a9e6	-0.0030618845
34	0x3cd02b45	0.025411258
35	0x3cf1e7dd	0.029529506
36	0x3d130624	0.035894528
37	0x3c8586ba	0.016299594
38	0x3c376658	0.011193834
39	0x3c63c195	0.013901134
40	0x3c9d36ad	0.01919111
41	0x3caa2dc1	0.02077377
42	0x3c248533	0.010041523
43	0xba4f90db	-0.00079180085
44	0x3ce70018	0.028198287
45	0x3c0a483e	0.008440075
46	0x3cb92b0b	0.022603532
47	0x3c300668	0.010743715
48	0x3c878bcd	0.016546154
49	0x3cc78a05	0.024357805
50	0x3c56d360	0.013111919
51	0xbc295f00	-0.010337591
52	0x3ca695c6	0.02033509
53	0x3a49cb5c	0.00076978444
54	0x3c58756b	0.013211588
55	0x3cfd5e3e	0.030928727
56	0x3c73bbfe	0.014876364
57	0xbbda8bd0	-0.006669499
58	0x3d147f8e	0.036254458
59	0x3ba8451d	0.005135192
60	0xbbfa1395	-0.007631729
61	0x3c8033d1	0.015649708
62	0x3cb99b17	0.02265696
63	0x3c94514c	0.018105172
64	0x39363ab4	0.00017378741
65	0x3ca8c825	0.020603249
66	0x3beab2f2	0.007162445
67	0x3c509273	0.012730229
68	0x3c867c55	0.016416708
69	0x3ce1aa45	0.027547011
70	0x3ca8d64a	0.020609993
71	0x3c87931d	0.016549641
72	0xba9f6bf6	-0.0012162912
73	0x3b841d33	0.004031801
74	0x3c26a73f	0.0101717105
75	0x3ca2ad1c	0.019857936
76	0x3aaed3b3	0.0013338238
77	0x3cad6d5f	0.021170316
78	0x3b91d0f7	0.0044499594
79	0x3c159494	0.009129662
80	0x3cdb478e	0.026767518
81	0x3c558ebb	0.013034518
82	0x3aae78b9	0.0013311125
83	0x3b28a710	0.0025734343
84	0x3c02fc8c	0.007994782
85	0x3ccc7063	0.024955934
86	0x3b6fce5b	0.0036591503
87	0xbc04601d	-0.008079556
88	0xbc4ee15a	-0.01262697
89	0x3bf2c262	0.007408426
90	0x3c88335a	0.016626049
91	0x3cf8257c	0.030291311
92	0x3c2fa1a1	0.010719688
93	0x3c07eb14	0.008295793
94	0x39e03d03	0.00042770067
95	0x3ba310f7	0.0049763876
96	0x3bec75c5	0.0072161877
97	0x3c14f4ff	0.009091615
98	0x3ce86776	0.028369647
99	0x3c06c0d3	0.008224684
100	0x3c95f52d	0.018305385
101	0x3d038f9f	0.03211939
102	0x3c4ca5e8	0.012490727
103	0x3cf04086	0.029327642
104	0x3cd8bb48	0.02645649
105	0xbb2d7d83	-0.0026472516
106	0x3cc59fca	0.024124045
107	0x3c85420e	0.016266849
108	0x3cc9b89d	0.024624163
109	0x3c2589a6	0.010103619
110	0x3c7a1a7b	0.0152651025
111	0x3c47248b	0.012154709
112	0x3c5c486d	0.013445002
113	0x3cfc6fff	0.030815123
114	0x3c81f293	0.015862739
115	0xbc67756a	-0.014127115
116	0x3bf59fa4	0.0074958373
117	0x3afa1188	0.0019078711
118	0x3c970285	0.018433819
119	0x3ac737f1	0.0015199167
120	0x3d10ee7c	0.035383686
121	0x3c17e56c	0.009271007
122	0x3cc28e39	0.023749458
123	0x3cbfcd3f	0.023413299
124	0x3c2d6f36	0.010585597
125	0x3cc7d4f1	0.02439353
126	0x3c775e0a	0.015098104
127	0x3ce9bd0e	0.028532531

conv3.1.running_mean f4 [128]
0	0x3e7a430a	0.24439636
1	0x3f7db7a3	0.9910833
2	0xbf0ea222	-0.55716145
3	0x3f2c034e	0.6719254
4	0xbefdb458	-0.49551654
5	0x3f4c7957	0.7987265
6	0x3d51bf6d	0.05120795
7	0xbe1107bb	-0.14163105
8	0x3e5f30d9	0.21795978
9	0x3e95bea1	0.29247
10	0x3faa2552	1.3292639
11	0x3f5e9ff1	0.869628
12	0x3def8415	0.116951145
13	0xbebb7db5	-0.36619344
14	0x3e44c383	0.19215207
15	0x3ea94e64	0.3306762
16	0x3e4516c0	0.1924696
17	0x3f377235	0.7165864
18	0x3e109e1b	0.14122812
19	0x3edcc436	0.43118447
20	0x3f6e2baa	0.93035376
21	0x3e1f11b4	0.15534097
22	0xbe6242bc	-0.2209577
23	0x3eeacaa9	0.45857742
24	0x3f0bfe7d	0.54685193
25	0x3fba9fd0	1.4580021
26	0xbde6fa91	-0.112782605
27	0x3e3bf11d	0.18353696
28	0x3df45c51	0.119316705
29	0x3f381cbc	0.71918845
30	0x3ed6f60c	0.41984594
31	0xbdbfe685	-0.0937014
32	0xbeaf8175	-0.34278455
33	0x3f827f0b	1.019502
34	0xbdd68821	-0.10475183
35	0xbdce41c4	-0.100711375
36	0x3e5585f5	0.20851882
37	0xbe6a2cbd	-0.22868629
38	0x3f164ec6	0.5871395
39	0xbdb2d388	-0.08731753
40	0x3e6cbd4f	0.2311909
41	0xbe0f1aef	-0.13975118
42	0x3c8b1363	0.016977018
43	0x3f9d4405	1.2286383
44	0x3e4d13ea	0.20027128
45	0x3e98558e	0.29752773
46	0xbf88aca4	-1.0677686
47	0x3fa497fa	1.285888
48	0x3f65d7a3	0.8978216
49	0xbd8d15d2	-0.068889275
50	0x3f0807fc	0.53137183
51	0x3f93b046	1.1538169
52	0x3ea8fe8d	0.33006707
53	0x3efb15e7	0.49040148
54	0xbc20a7e6	-0.009805655
55	0xbc90d34c	-0.01767888
56	0xbe237c35	-0.1596535
57	0x3f86a687	1.051957
58	0xbe637a62	-0.22214654
59	0x3e20163c	0.15633482
60	0x3fdf4948	1.7444239
61	0x3e87b200	0.2650299
62	0x3fa247ad	1.2678124
63	0x3ec45c3a	0.38351613
64	0x3e831290	0.256001
65	0xbc07f07c	-0.008297082
66	0xbd8ed2c9	-0.06973798
67	0x3ebbe067	0.36694643
68	0x3ef5cfb7	0.48010036
69	0x3fc553b3	1.5416168
70	0x3f1033a4	0.563288
71	0xbeac7375	-0.33681837
72	0x3f8da8e5	1.1067168
73	0x3f2ebceb	0.68257016
74	0x3f1766e5	0.5914138
75	0x3e1343c5	0.14381321
76	0x3f4ac727	0.7921013
77	0xbeaa0db1	-0.3321357
78	0x3f41c92f	0.75697607
79	0x3f621619	0.8831497
80	0x3db37c38	0.08763927
81	0x3ed87cde	0.42282766
82	0x3f0db176	0.5534891
83	0x3f587523	0.84553736
84	0x3d8f2704	0.069898635
85	0x3eb853c4	0.36001408
86	0x3f15d874	0.58533406
87	0x3eee7fa3	0.46581754
88	0x3f3a0f02	0.7267915
89	0x3e202a32	0.15641096
90	0x3dd8f073	0.10592737
91	0xbecb3ec8	-0.39696336
92	0x3eb116c5	0.34587684
93	0x3f0e5daf	0.556117
94	0x3fa5041e	1.2891881
95	0x3f711751	0.94176203
96	0x3e9ea637	0.30986187
97	0x3ecbb7a2	0.39788538
98	0xbeb7433f	-0.35793492
99	0x3dfc4340	0.123175144
100	0xbe2f22f0	-0.17103171
101	0xbf88325c	-1.0640368
102	0x3dbf18c8	0.093308985
103	0x3d76da33	0.060266685
104	0x3da37543	0.0798135
105	0x3f35cf74	0.71019673
106	0xbe5a1def	-0.21300481
107	0x3e7f547e	0.24934575
108	0x3fa4154e	1.2819002
109	0x3eb6a74e	0.35674518
110	0x3b905edf	0.0044058408
111	0xbe382765	-0.17983778
112	0x3f17da45	0.5931743
113	0xbd79dace	-0.060999684
114	0x3f1b27a0	0.6060734
115	0x3f2f3844	0.6844523
116	0x3ef6d64d	0.48210374
117	0x3f208676	0.6270517
118	0xbeb06b25	-0.34456745
119	0x3f02c059	0.5107475
120	0xbe5ca5d6	-0.21547636
121	0x3ee01936	0.43769234
122	0xbf2902da	-0.66019976
123	0x3e899919	0.26874617
124	0x3e2ff4b7	0.17183195
125	0x3ca338d4	0.019924559
126	0x3d14b22b	0.036302727
127	0x3d674cfb	0.0564699

conv3.1.running_var f4 [128]
0	0x3ea5def1	0.32396653
1	0x3f0cb374	0.54961324
2	0x3ebcfa17	0.36909553
3	0x3f113c2d	0.56732446
4	0x3e91f790	0.28509188
5	0x3f0d6bfe	0.5524291
6	0x3ecaec22	0.3963328
7	0x3eb22474	0.34793437
8	0x3ea31066	0.3184845
9	0x3ef39a20	0.47578526
10	0x3edb3706	0.42815417
11	0x3f076e36	0.52902544
12	0x3eb35904	0.3502885
13	0x3ea4ab07	0.32161734
14	0x3ed4672b	0.4148496
15	0x3eee8a92	0.46590096
16	0x3ef70148	0.48243165
17	0x3f403ea3	0.75095576
18	0x3e9095ef	0.2823939
19	0x3f1ef543	0.6209299
20	0x3f06f77b	0.52721375
21	0x3ec55baa	0.38546497
22	0x3eba519d	0.3639039
23	0x3ee9214e	0.45533222
24	0x3f039509	0.51399285
25	0x3f504444	0.81354165
26	0x3f04d00d	0.5187996
27	0x3e8f5fc0	0.2800274
28	0x3eee41ae	0.46534485
29	0x3f01ceda	0.50706255
30	0x3ee06766	0.43828887
31	0x3f0f2e5a	0.559301
32	0x3e8bea31	0.2732711
33	0x3f0de784	0.5543139
34	0x3e92f8c0	0.28705406
35	0x3f00f5dc	0.5037515
36	0x3efe95e1	0.49723724
37	0x3efe523d	0.49672118
38	0x3f168d2e	0.58809173
39	0x3e91e39f	0.28493974
40	0x3ec0da08	0.37666345
41	0x3efbda0c	0.49189794
42	0x3ee74528	0.4516995
43	0x3f15cb80	0.5851364
44	0x3f03a754	0.514272
45	0x3eca192b	0.39472327
46	0x3f0e3def	0.55563253
47	0x3f8426c5	1.0324332
48	0x3ec24cbf	0.37949178
49	0x3e938dc7	0.28819105
50	0x3eb2c97b	0.34919342
51	0x3eaf12f0	0.34194136
52	0x3e833c0c	0.2563175
53	0x3f0933e3	0.535948
54	0x3e5c8cf7	0.21538149
55	0x3e9dc9e9	0.30818108
56	0x3e87f547	0.2655432
57	0x3ed33b70	0.41256285
58	0x3f127ac3	0.5721857
59	0x3f172534	0.5904114
60	0x3f2cb947	0.6747021
61	0x3eaa83c5	0.33303657
62	0x3f390ed3	0.72288245
63	0x3ebc3115	0.36756197
64	0x3ece1b40	0.40255165
65	0x3e97f968	0.2968247
66	0x3eb8a56f	0.36063716
67	0x3f02c3c4	0.51079965
68	0x3eccb6cc	0.39983213
69	0x3f8af74b	1.0856718
70	0x3edfea69	0.43733528
71	0x3ecf792d	0.40522137
72	0x3e9f1546	0.31070918
73	0x3f02f7b4	0.51159215
74	0x3ec79b66	0.38985747
75	0x3eb7cbe6	0.3589775
76	0x3eae1ed5	0.34007898
77	0x3e8f60fe	0.28003687
78	0x3f078603	0.5293886
79	0x3ea839c8	0.32856584
80	0x3edbf900	0.4296341
81	0x3ee095b6	0.4386422
82	0x3edb01b5	0.4277474
83	0x3e90037c	0.28127658
84	0x3f1fcdd8	0.6242347
85	0x3f14c4bd	0.581127
86	0x3eaa32e4	0.3324195
87	0x3f173414	0.5906384
88	0x3f2f9f62	0.68602574
89	0x3ecf8fc8	0.40539384
90	0x3eb5dd2e	0.3552031
91	0x3e94ea07	0.290848
92	0x3ecdbaf0	0.40181684
93	0x3eac548f	0.33658263
94	0x3f16ba60	0.58878136
95	0x3efec2d3	0.49758014
96	0x3ee043b5	0.43801656
97	0x3ede578a	0.43426162
98	0x3e92f383	0.2870141
99	0x3ec1272e	0.37725204
100	0x3e9e885c	0.3096341
101	0x3edc2939	0.430002
102	0x3eeead29	0.46616486
103	0x3ed92b10	0.42415667
104	0x3f1c1f26	0.6098503
105	0x3ebcbf5c	0.36864746
106	0x3e88cb01	0.2671738
107	0x3ef2f0b4	0.47449267
108	0x3f02ef59	0.51146466
109	0x3f021ac5	0.508221
110	0x3ef051cc	0.46937406
111	0x3ee9ac19	0.45639113
112	0x3f140c19	0.5783096
113	0x3ebdf42e	0.37100357
114	0x3ed03c58	0.4067104
115	0x3e9ba1ee	0.3039698
116	0x3f00a81d	0.5025652
117	0x3eebaf38	0.4603212
118	0x3e8ceae2	0.2752295
119	0x3eff4323	0.4985591
120	0x3eebde5f	0.46068093
121	0x3ec27e12	0.3798681
122	0x3ede28cf	0.4339051
123	0x3ef1a92f	0.4719939
124	0x3edba81e	0.429017
125	0x3eacd26d	0.33754292
126	0x3f0b9350	0.54521656
127	0x3ed23e9b	0.4106339
